edge/model_bundle.npz (npz, 34573 bytes, 8 tensors)

in_W f4 [48, 113]
0.0037056503 -0.024207179 -0.045715608 -0.042340036 -0.0032378929 -0.042068984 -0.042044077 -0.0059400955
-0.03357371 0.037204925 0.0603318 0.015593889 0.05923427 -0.13245763 -0.0490657 0.011632438
-0.097926535 0.053363744 -0.060291417 -0.017210893 0.08102768 0.0397013 -0.14876516 -0.052496783
0.03863616 0.11321363 0.106059775 -0.076749116 -0.027823191 0.09134473 0.0482486 0.059924792
-0.031245608 -0.017890118 0.06251602 0.08433798 -0.10086843 0.04939952 -0.024816837 -0.026599957
-0.031514615 -0.115379184 -0.13482076 -0.04278202 0.026444905 -0.10018085 0.07633384 0.047963966
0.03366635 0.031477798 -0.122219376 0.00509954 0.047108416 0.1065949 -0.052621357 -0.0327435
0.062491138 -0.12745662 0.0996455 -0.012977623 0.10296691 0.065420456 0.028577356 -0.09832524
0.025888534 -0.027810898 -0.037043855 0.0309245 0.019208739 0.0966988 -0.08929998 0.1260858
0.08749626 0.083412796 0.16265057 -0.022045031 -0.061066944 0.027532507 0.047912586 0.048889976
0.027484123 0.09636731 0.1190218 0.11646705 -0.041049886 0.05100507 -0.045677166 -0.06507894
-0.056679077 -0.07424738 -0.065564685 0.032247726 0.1605946 0.020092396 -0.13301042 0.0492908
0.11153435 0.0035790394 0.090732224 0.088430926 -0.029858192 -0.025441727 -0.006944798 -0.03629105
0.04933208 -0.0855741 -0.033492524 -0.09079332 -0.005721785 0.028868143 -0.051696446 0.02435118
0.032050412 -0.046409793 0.079182826 0.12400425 -0.04541252 0.0337041 -0.093162626 0.013917643
0.066070184 -0.07287804 0.047480367 0.033952486 0.0026480204 0.016111556 -0.07325823 -0.0071365405
0.081801265 0.0011772115 -0.09196061 0.06981215 0.043832038 0.13390027 -0.083712526 -0.076709524
-0.07009551 0.12781675 -0.001194584 0.02453272 0.00021475657 -0.025100889 0.078637704 0.007895312
-0.030026387 0.00697492 -0.09712291 -0.11079022 -0.008316243 0.0043749874 -0.07982523 0.111060046
-0.09849473 -0.062280342 0.091261074 0.0021902227 -0.01905133 0.018729553 -0.15616587 -0.0016651767
-0.09647734 0.05876189 -0.09796788 0.07956722 -0.13805647 -0.0052997917 -0.045659352 -0.13831158
-0.14261629 -0.1361317 -0.14797027 0.019650944 0.05338916 -0.05726624 -0.041624393 -0.03203055
-0.020761738 -0.028334131 -0.05827888 0.010576282 0.014306763 -0.047844324 -0.01887499 -0.08816314
-0.06914643 0.0834636 0.014627825 0.0579258 -0.040841155 -0.06464527 -0.0044132997 -0.103364184
-0.072386436 0.13290569 0.07285198 0.07665508 0.0869247 0.04535669 -0.033345416 -0.009841772
-0.02988596 -0.014471905 0.00841958 -0.005657999 -0.1079199 -0.01628331 -0.014487775 -0.053495318
0.053430602 -0.0098345475 -0.0125712175 -0.0071971742 -0.10652579 -0.014571771 0.11885551 -0.016756153
-0.03646594 -0.01495067 0.02456955 -0.036311075 -0.031901937 0.014543704 0.009478736 -0.101645485
-0.15431114 -0.031703323 -0.10934176 -0.114025325 -0.017530674 -0.019912522 -0.07299973 -0.020671463
-0.0134407915 0.0046306774 -0.039691504 0.04408933 -0.03044654 0.04954536 -0.03883385 0.031732414
0.06678019 0.04813242 -0.1079415 -0.023191696 0.08484686 -0.004618611 -0.06988699 -0.04009301
-0.06974415 -0.03768437 -0.051409747 -0.08289876 0.13034025 0.11091712 0.101732664 0.041991785
00000000: 7fda 723b 224e c6bc 4a40 3bbd bf6c 2dbd
00000010: d432 54bb 8750 2cbd 6936 2cbd 22a5 c2bb
00000020: 9684 09bd 3164 183d 7a1e 773d 837d 7f3c
00000030: a29f 723d f9a2 07be 1ef9 48bd fb95 3e3c
00000040: b58d c8bd f193 5a3d 22f4 76bd dcfd 8cbc
00000050: d7f1 a53d d59d 223d e555 18be de06 57bd
00000060: f340 1e3d 8cdc e73d de35 d93d a42e 9dbd
00000070: 76ed e3bc f212 bb3d 53a0 453d b373 753d
00000080: caf6 ffbc 4c8e 92bc 6608 803d 64b9 ac3d
00000090: 1c94 cebd 2757 4a3d ae4c cbbc 27e8 d9bc
000000a0: 7815 01bd ec4b ecbd 740e 0abe 333c 2fbd
000000b0: fca2 d83c 9e2b cdbd eb54 9c3d dd75 443d
000000c0: bae5 093d ddee 003d 274e fabd 0b1a a73b
000000d0: c1f4 403d 6d4e da3d 7e89 57bd 0c1e 06bd
000000e0: b5f6 7f3d fd83 02be f112 cc3d 19a0 54bc
000000f0: 51e0 d23d 29fb 853d 0f1b ea3c be5e c9bd
00000100: 3114 d43c aed3 e3bc 4cbb 17bd 6155 fd3c
00000110: a55b 9d3c 050a c63d e8e2 b6bd a31c 013e
00000120: 3d31 b33d 54d4 aa3d df8d 263e c897 b4bc
00000130: 5521 7abd da8b e13c fd3f 443d db40 483d
00000140: 6226 e13c 395c c53d b4c1 f33d 4786 ee3d
00000150: ed23 28bd b1ea 503d fb17 3bbd 1b48 85bd
00000160: 5228 68bd 030f 98bd c746 86bd 3116 043d
00000170: e972 243e cf98 a43c e233 08be 26e5 493d
00000180: 1f6c e43d 518e 6a3b d1d1 b93d 461b b53d
00000190: 2b99 f4bc 2b6b d0bc 3091 e3bb eda5 14bd
000001a0: 6f10 4a3d 7941 afbd 752f 09bd d9f1 b9bd
000001b0: d07d bbbb e27c ec3c a7bf 53bd 207c c73c
000001c0: 4b47 033d 3218 3ebd 9b2a a23d f1f5 fd3d
000001d0: 7b02 3abd 4f0d 0a3d 0ccc bebd d306 643c
000001e0: ce4f 873d 1541 95bd c67a 423d c311 0b3d
000001f0: 698a 2d3b 62fc 833c 6908 96bd a4d9 e9bb
00000200: 6c87 a73d aa4c 9a3a d855 bcbd acf9 8e3d
00000210: 3989 333d 271d 093e 7971 abbd e219 9dbd
00000220: 3c8e 8fbd 65e2 023e 9693 9cba d8f8 c83c
00000230: 4730 6139 61a0 cdbc ce0c a13d 575b 013c
00000240: e6f9 f5bc df8d e43b 60e8 c6bd fce5 e2bd
00000250: da40 08bc 0e5c 8f3b 697b a3bd 7373 e33d
00000260: 9bb7 c9bd ac19 7fbd 16e7 ba3d d789 0f3b
00000270: 8911 9cbc b86e 993c f2e9 1fbe 0f42 daba
00000280: e995 c5bd 4fb0 703d 62a3 c8bd 23f4 a23d
00000290: ad5e 0dbe e0a9 adbb 4d05 3bbd 8da1 0dbe
000002a0: 010a 12be 1c66 0bbe 8585 17be 04fb a03c
000002b0: 98ae 5a3d 0190 6abd 577e 2abd 7732 03bd
000002c0: 8514 aabc fb1c e8bc d6b5 6ebd 2448 2d3c
000002d0: ea66 6a3c 69f8 43bd b99f 9abc e08e b4bd
000002e0: a59c 8dbd f7ee aa3d 8ba9 6f3c 9b43 6d3d
000002f0: 0e49 27bd bd64 84bd 719d 90bb 9ab0 d3bd
00000300: 573f 94bd 6e18 083e 6b33 953d 57fd 9c3d
00000310: 9405 b23d f0c7 393d 3495 08bd 623f 21bc
00000320: 67d3 f4bc 921b 6dbc 47f2 093c bc66 b9bb
00000330: 1c05 ddbd 9364 85bc 225e 6dbc e81d 5bbd
00000340: 0cda 5a3d 1521 21bc 82f7 4dbc 46d6 ebbb
00000350: 322a dabd 70be 6ebc 856a f33d 3344 89bc
00000360: 4f5d 15bd a8f3 74bc 1546 c93c ecba 14bd
00000370: 9bab 02bd b748 6e3c b34c 1b3c 822b d0bd
00000380: bd03 1ebe 58db 01bd 93ee dfbd 1c86 e9bd
00000390: 7d9c 8fbc 961f a3bc e280 95bd 3357 a9bc
000003a0: c436 5cbc f0bc 973b 8f93 22bd 0397 343d
000003b0: 066b f9bc 13f0 4a3d 3e10 1fbd d9f9 013d
000003c0: 0dc4 883d 8026 453d 6f10 ddbd 83fc bdbc
000003d0: 31c4 ad3d b857 97bb e920 8fbd 9138 24bd
000003e0: 05d6 8ebd ed5a 1abd 0793 52bd d3c6 a9bd
000003f0: ea77 053e 8428 e33d 3759 d03d 94ff 2b3d

in_b f4 [48]
-0.04079844 0.20632075 0.03903275 0.18708912 -0.1771964 -0.09954072 0.017628152 0.09402323
-0.021746457 -0.16497952 -0.20279923 0.19210151 0.01392443 0.010169154 0.18795513 -0.033060156
-0.16314712 -0.11854621 0.13852085 -0.19376841 -0.026645152 -0.056013703 0.03535105 0.14365695
0.0064149057 -0.07698531 -0.14482908 0.086207464 -0.00066579686 0.14117046 0.06157376 0.121760204
-0.015163345 -0.13775618 -0.14650933 0.014914545 -0.20669052 -0.045552474 0.034495905 0.19372633
-0.020929018 -0.089711554 0.2004608 -0.10666237 0.052578464 0.10582192 0.062284365 0.14212565
00000000: 441c 27bd bf45 533e cee0 1f3d 4a94 3f3e
00000010: f972 35be 01dc cbbd ea68 903c 408f c03d
00000020: a025 b2bc 64f0 28be 9aaa 4fbe 42b6 443e
00000030: 4b23 643c 869c 263c 4f77 403e 166a 07bd
00000040: 0a10 27be 5bc8 f2bd 69d8 0d3e 3a6b 46be
00000050: ef46 dabc a06e 65bd 43cc 103d cf1a 133e
00000060: 2134 d23b 79aa 9dbd 134e 14be 8a8d b03d
00000070: df88 2eba fd8e 103e c434 7c3d 6a5d f93d
00000080: ae6f 78bc f50f 0dbe 8b06 16be 235c 743c
00000090: aea6 53be 3b95 3abd 944b 0d3d 3260 463e
000000a0: 5573 abbc b1ba b7bd 9945 4d3e cd71 dabd
000000b0: 845c 573d 2ab9 d83d e41d 7f3d 6389 113e

cell_W f4 [48, 48]
0.21830228 -0.2378997 0.30509925 -0.26864836 0.084019005 -0.19206701 0.09738057 0.013176737
-9.7599385e-12 8.9713827e-13 -2.9684324e-11 -1.5578424e-11 7.662471e-13 6.758391e-12 -1.7114116e-12 -9.484413e-13
-1.9150987e-12 4.622814e-12 8.668467e-12 6.232282e-12 -1.8024863e-12 -1.2185835e-11 -4.0778145e-14 1.2466235e-11
-1.31220364e-11 -3.0972214e-11 2.4314804e-12 -2.2740178e-14 5.667845e-12 -9.662616e-13 -2.2817746e-11 4.995996e-13
1.0992791e-13 4.068952e-11 -3.9525783e-12 1.2364703e-11 -4.934336e-12 -1.1619761e-12 2.9292853e-11 8.492145e-12
-6.8215935e-13 4.1874507e-12 2.3581498e-11 -3.4250229e-12 3.8509713e-11 -4.3969266e-13 -2.3530526e-12 9.777654e-13
-0.20159079 0.20493706 0.16162583 0.047522407 -0.06830131 0.21548551 -0.19768359 0.16706166
-2.915424e-11 6.276867e-12 5.9938348e-12 1.5093595e-11 -9.117385e-12 1.6037295e-11 5.389486e-11 3.341564e-12
-8.472164e-12 -4.640335e-12 2.3895014e-12 7.2599153e-13 2.706986e-13 4.1373385e-12 -1.8974676e-11 9.221521e-12
8.8433126e-14 1.7245384e-11 2.5016187e-11 -1.6700277e-11 1.325619e-11 -4.6863793e-12 -2.562932e-11 7.070284e-13
-1.19065756e-11 -1.0673584e-11 -1.1426518e-11 -4.1321846e-12 4.9396143e-11 1.2961534e-11 1.0933301e-12 -5.265161e-11
2.3173807e-11 1.29964095e-11 -6.1877157e-12 -7.3949484e-13 -3.8330548e-13 -1.167333e-12 -9.821902e-12 -5.016275e-13
0.24625258 0.20258214 0.22878264 -0.19826487 -0.17756093 0.16440351 0.13822559 0.2184498
-6.090398e-12 1.5195083e-11 -1.728513e-11 -8.476128e-13 -1.706808e-11 2.6907632e-11 1.673753e-11 -1.9831503e-11
8.437617e-12 -1.2928454e-11 9.516512e-12 4.273104e-12 8.572866e-12 -6.3132187e-13 -1.6650575e-11 6.693349e-12
9.579963e-12 6.926879e-13 1.6364554e-11 3.3642143e-12 -3.3625262e-12 5.1333295e-12 3.4136097e-11 -8.049338e-13
6.8425304e-12 -1.1481489e-11 -3.40745e-13 7.687491e-13 -1.0731296e-11 2.0200085e-13 6.9522036e-12 -5.5343876e-12
-2.2135206e-12 -2.5727751e-12 4.063313e-12 7.904308e-12 9.539657e-12 -5.793909e-13 -5.7931034e-12 5.2772543e-13
-0.25063825 0.114925854 -0.27615133 0.19790608 -0.21813859 -0.09202903 0.14770207 0.20623648
4.994554e-12 -4.102799e-12 -1.9337613e-11 -5.4167094e-11 -3.9560216e-11 4.1441555e-12 2.6929137e-13 3.758617e-11
2.8265302e-12 2.6936411e-11 -4.229492e-12 3.0412474e-12 1.7880286e-11 4.5532345e-12 1.1246651e-12 2.6925476e-12
7.513493e-12 -1.1644214e-11 -1.1077067e-11 1.7865228e-11 1.0191396e-11 1.2520419e-12 3.268025e-12 -5.034756e-12
8.10679e-13 -2.5302508e-11 -2.5830975e-11 2.6753187e-12 -4.315981e-12 1.4486183e-11 1.0406192e-12 7.213995e-13
-1.40531805e-11 -1.095753e-12 -1.6465879e-11 3.3415143e-12 -5.6803763e-12 -3.452068e-11 -1.7678328e-13 -7.5272286e-13
-0.009119604 -0.15287465 -0.101175435 -0.17840995 0.2421204 0.26956806 -0.14892629 -0.21169895
3.2041678e-12 1.2269102e-11 -3.9199644e-11 -9.482301e-13 -4.3196497e-12 -4.0987558e-13 -3.1986497e-11 5.298875e-12
-1.7941286e-11 -3.5613665e-12 1.4545591e-13 5.5336803e-12 -5.981981e-12 3.6753975e-11 -1.3992949e-11 -1.71895e-11
-2.9745154e-11 5.45296e-13 1.0151578e-11 -6.6507763e-12 -1.1177539e-13 -8.217451e-12 1.4400305e-11 1.7902606e-12
-4.657674e-12 -1.3778508e-12 1.9799003e-11 -1.2743509e-12 -3.7623005e-11 1.53145e-11 -1.3927008e-11 2.0951385e-12
1.717996e-11 -4.1023352e-12 4.6228243e-11 -1.967252e-12 -2.1223358e-11 -1.5158555e-12 -4.9761896e-12 -2.969208e-13
-0.20272326 0.21829408 0.14092822 -0.086465016 0.21543108 0.17223927 -0.106635086 0.14660716
3.8047785e-12 -7.442479e-12 3.2185587e-12 2.8051793e-12 2.3907805e-12 3.756426e-12 -1.36505e-11 -2.6457963e-12
00000000: a28a 5f3e fb9b 73be f835 9c3e 478c 89be
00000010: 2812 ac3d 37ad 44be 776f c73d 3ee3 573c
00000020: dbb2 2bad a085 7c2b 948d 02ae 7e07 89ad
00000030: ecad 572b 2dca ed2c 1adc f0ab 337b 85ab
00000040: 5ac3 06ac 9ba6 a22c 4e7f 182d 6847 db2c
00000050: 6aad fdab 1f60 56ad 00a6 37a9 ee4e 5b2d
00000060: 66d8 66ad 9d37 08ae a819 2b2c 48d3 cca8
00000070: 696b c72c 3efd 87ab ffb4 c8ad f29f 0c2b
00000080: 2089 f729 54f4 322e a911 8bac ac85 592d
00000090: 8c9c adac 9a88 a3ab d2d4 002e 3965 152d
000000a0: c302 40ab 3455 932c d06c cf2d ba03 71ac
000000b0: 155e 292e 6486 f7aa d494 25ac b69b 892b
000000c0: d16d 4ebe 05db 513e 3e81 253e dba6 423d
000000d0: 8fe1 8bbd 3ca8 5c3e 916d 4abe 3612 2b3e
000000e0: c238 00ae fed8 dc2c aae3 d22c c1c3 842d
000000f0: 0d65 20ad c710 8d2d 3808 6d2e 4424 6b2c
00000100: 3c0b 15ad 6c44 a3ac 6e25 282c 3459 4c2b
00000110: c863 982a d591 912c 2ce7 a6ad 0a3a 222d
00000120: 3a22 c729 27b1 972d 720b dc2d aee5 92ad
00000130: 9334 692d 27e3 a4ac 1970 e1ad c402 472b
00000140: 7376 51ad 8dc5 3bad 7604 49ad 6963 91ac
00000150: 1d3f 592e 8f05 642d 5edf 992b 7190 67ae
00000160: c6d6 cb2d a0a2 642d fdb5 d9ac 3826 50ab
00000170: 24c8 d7aa 9b49 a4ab eac9 2cad 1232 0dab
00000180: a329 7c3e b171 4f3e ff45 6a3e f205 4bbe
00000190: 88d2 35be 6559 283e 028b 0d3e 4eb1 5f3e
000001a0: 6e49 d6ac 49a8 852d a70a 98ad f094 6eab
000001b0: e621 96ad 9aae ec2d 9139 932d 9370 aead
000001c0: a66f 142d 9570 63ad 8f6a 272d b358 962c
000001d0: c2d0 162d 89b3 31ab c375 92ad 5480 eb2c
000001e0: 5188 282d 6cf9 422b b3f1 8f2d 4cbc 6c2c
000001f0: e39d 6cac ec9c b42c d421 162e 9891 62ab
00000200: 09c0 f02c 08fc 49ad 88d2 bfaa 3662 582b
00000210: 76c9 3cad c86e 632a e29b f42c 55b9 c2ac
00000220: 3ec3 1bac ff0a 35ac 12f7 8e2c d70d 0b2d
00000230: ccd2 272d 8415 23ab a3d3 cbac a08a 142b
00000240: a853 80be 3f5e eb3d b563 8dbe e4a7 4a3e
00000250: b95f 5fbe b779 bcbd 363f 173e a82f 533e
00000260: f1ba af2c ba5a 90ac 6f18 aaad ba3a 6eae
00000270: d8fc 2dae 3ccf 912c fa98 972a 444e 252e
00000280: 3ee6 462c 68ef ec2d e1cf 94ac 3e02 562c
00000290: d346 9d2d e433 a02c 5548 9e2b a078 3d2c
000002a0: c42d 042d e1d8 4cad adde 42ad eb24 9d2d
000002b0: f849 332d 9035 b02b 81f7 652c 0d25 b1ac
000002c0: 942f 642b 2f90 dead 2f36 e3ad 4242 3c2c
000002d0: e7da 97ac f8d7 7e2d 4274 922b 500e 4b2b
000002e0: e639 77ad aa36 9aab ddd5 90ad 5f23 6b2c
000002f0: 48dc c7ac d5d2 17ae 500a 47aa 66df 53ab
00000300: 646a 15bc 2c8b 1cbe 1135 cfbd 19b1 36be
00000310: 69ee 773e d304 8a3e 2280 18be 9cc7 58be
00000320: 2879 612c 20d7 572d e066 2cae 9773 85ab
00000330: f2fb 97ac 4cbd e6aa 98ad 0cae 0670 ba2c
00000340: 2fd0 9dad e09b 7aac d0c4 232a f6b2 c22c
00000350: e578 d2ac 4ca5 212e a42a 76ad 5033 97ad
00000360: 11d2 02ae b87c 192b a596 322d de00 eaac
00000370: 20b2 fba9 1c90 10ad 3555 7d2d f0f4 fb2b
00000380: 99e0 a3ac 4fea c1ab 6427 ae2d 5459 b3ab
00000390: bd77 25ae 30b5 862d ab01 75ad a96e 132c
000003a0: d51d 972d 8d56 90ac 6050 4b2e dd6e 0aac
000003b0: c1ae baad 7356 d5ab 8815 afac cc26 a7aa
000003c0: b096 4fbe 7c88 5f3e 7d4f 103e 9214 b1bd
000003d0: f799 5c3e 7e5f 303e 7f63 dabd 3020 163e
000003e0: 66de 852c f2ed 02ad 667c 622c 9e65 452c
000003f0: 793c 282c e12a 842c 6324 70ad 6e2e 3aac

cell_b f4 [48]
0.012848893 -0.00959871 -0.027570656 -0.039923005 0.022579161 -0.005738996 -0.04917348 -0.036536023
0.0032394363 0.042144064 0.020887872 -0.09688622 -0.02813825 0.08297996 -0.007729421 0.01845831
0.048987392 0.013370868 -0.018660946 0.012706965 -0.042450275 0.01808627 0.019631341 -0.037811477
-0.038129497 -0.021199025 -0.015659893 -0.019113319 -0.03188824 -0.07767774 -0.05452556 0.014052206
0.02817921 0.008891912 0.014569625 0.033603277 -0.02742723 0.023533227 -0.040008057 -0.06492921
0.0023722574 0.038021404 -0.08898104 -0.04631201 -0.024497567 -0.004313723 0.047434706 0.011726212
00000000: 2a84 523c e843 1dbc dbdb e1bc 4e86 23bd
00000010: eff7 b83c 300e bcbb 226a 49bd cca6 15bd
00000020: b94c 543b 419f 2c3d 0b1d ab3c 486c c6bd
00000030: 3082 e6bc 66f1 a93d 1547 fdbb e235 973c
00000040: 01a7 483d 7c11 5b3c d7de 98bc e030 503c
00000050: 57e0 2dbd a829 943c e8d1 a03c 35e0 1abd
00000060: ad2d 1cbd 94a9 adbc 2d49 80bc 8993 9cbc
00000070: 3e9d 02bd 8215 9fbd 3256 5fbd 393b 663c
00000080: 16d8 e63c 62af 113c 70b5 6e3c 97a3 093d
00000090: 12af e0bc c1c8 c03c 7ddf 23bd 9bf9 84bd
000000a0: e077 1b3b 55bc 1b3d b13b b6bd aab1 3dbd
000000b0: 1faf c8bc 225a 8dbb e54a 423d 4c1f 403c

mask f4 [48, 48]
1.0 1.0 1.0 1.0 1.0 1.0 1.0 1.0
0.0 0.0 0.0 0.0 0.0 0.0 0.0 0.0
0.0 0.0 0.0 0.0 0.0 0.0 0.0 0.0
0.0 0.0 0.0 0.0 0.0 0.0 0.0 0.0
0.0 0.0 0.0 0.0 0.0 0.0 0.0 0.0
0.0 0.0 0.0 0.0 0.0 0.0 0.0 0.0
1.0 1.0 1.0 1.0 1.0 1.0 1.0 1.0
0.0 0.0 0.0 0.0 0.0 0.0 0.0 0.0
0.0 0.0 0.0 0.0 0.0 0.0 0.0 0.0
0.0 0.0 0.0 0.0 0.0 0.0 0.0 0.0
0.0 0.0 0.0 0.0 0.0 0.0 0.0 0.0
0.0 0.0 0.0 0.0 0.0 0.0 0.0 0.0
1.0 1.0 1.0 1.0 1.0 1.0 1.0 1.0
0.0 0.0 0.0 0.0 0.0 0.0 0.0 0.0
0.0 0.0 0.0 0.0 0.0 0.0 0.0 0.0
0.0 0.0 0.0 0.0 0.0 0.0 0.0 0.0
0.0 0.0 0.0 0.0 0.0 0.0 0.0 0.0
0.0 0.0 0.0 0.0 0.0 0.0 0.0 0.0
1.0 1.0 1.0 1.0 1.0 1.0 1.0 1.0
0.0 0.0 0.0 0.0 0.0 0.0 0.0 0.0
0.0 0.0 0.0 0.0 0.0 0.0 0.0 0.0
0.0 0.0 0.0 0.0 0.0 0.0 0.0 0.0
0.0 0.0 0.0 0.0 0.0 0.0 0.0 0.0
0.0 0.0 0.0 0.0 0.0 0.0 0.0 0.0
1.0 1.0 1.0 1.0 1.0 1.0 1.0 1.0
0.0 0.0 0.0 0.0 0.0 0.0 0.0 0.0
0.0 0.0 0.0 0.0 0.0 0.0 0.0 0.0
0.0 0.0 0.0 0.0 0.0 0.0 0.0 0.0
0.0 0.0 0.0 0.0 0.0 0.0 0.0 0.0
0.0 0.0 0.0 0.0 0.0 0.0 0.0 0.0
1.0 1.0 1.0 1.0 1.0 1.0 1.0 1.0
0.0 0.0 0.0 0.0 0.0 0.0 0.0 0.0
00000000: 0000 803f 0000 803f 0000 803f 0000 803f
00000010: 0000 803f 0000 803f 0000 803f 0000 803f
00000020: 0000 0000 0000 0000 0000 0000 0000 0000
00000030: 0000 0000 0000 0000 0000 0000 0000 0000
00000040: 0000 0000 0000 0000 0000 0000 0000 0000
00000050: 0000 0000 0000 0000 0000 0000 0000 0000
00000060: 0000 0000 0000 0000 0000 0000 0000 0000
00000070: 0000 0000 0000 0000 0000 0000 0000 0000
00000080: 0000 0000 0000 0000 0000 0000 0000 0000
00000090: 0000 0000 0000 0000 0000 0000 0000 0000
000000a0: 0000 0000 0000 0000 0000 0000 0000 0000
000000b0: 0000 0000 0000 0000 0000 0000 0000 0000
000000c0: 0000 803f 0000 803f 0000 803f 0000 803f
000000d0: 0000 803f 0000 803f 0000 803f 0000 803f
000000e0: 0000 0000 0000 0000 0000 0000 0000 0000
000000f0: 0000 0000 0000 0000 0000 0000 0000 0000
00000100: 0000 0000 0000 0000 0000 0000 0000 0000
00000110: 0000 0000 0000 0000 0000 0000 0000 0000
00000120: 0000 0000 0000 0000 0000 0000 0000 0000
00000130: 0000 0000 0000 0000 0000 0000 0000 0000
00000140: 0000 0000 0000 0000 0000 0000 0000 0000
00000150: 0000 0000 0000 0000 0000 0000 0000 0000
00000160: 0000 0000 0000 0000 0000 0000 0000 0000
00000170: 0000 0000 0000 0000 0000 0000 0000 0000
00000180: 0000 803f 0000 803f 0000 803f 0000 803f
00000190: 0000 803f 0000 803f 0000 803f 0000 803f
000001a0: 0000 0000 0000 0000 0000 0000 0000 0000
000001b0: 0000 0000 0000 0000 0000 0000 0000 0000
000001c0: 0000 0000 0000 0000 0000 0000 0000 0000
000001d0: 0000 0000 0000 0000 0000 0000 0000 0000
000001e0: 0000 0000 0000 0000 0000 0000 0000 0000
000001f0: 0000 0000 0000 0000 0000 0000 0000 0000
00000200: 0000 0000 0000 0000 0000 0000 0000 0000
00000210: 0000 0000 0000 0000 0000 0000 0000 0000
00000220: 0000 0000 0000 0000 0000 0000 0000 0000
00000230: 0000 0000 0000 0000 0000 0000 0000 0000
00000240: 0000 803f 0000 803f 0000 803f 0000 803f
00000250: 0000 803f 0000 803f 0000 803f 0000 803f
00000260: 0000 0000 0000 0000 0000 0000 0000 0000
00000270: 0000 0000 0000 0000 0000 0000 0000 0000
00000280: 0000 0000 0000 0000 0000 0000 0000 0000
00000290: 0000 0000 0000 0000 0000 0000 0000 0000
000002a0: 0000 0000 0000 0000 0000 0000 0000 0000
000002b0: 0000 0000 0000 0000 0000 0000 0000 0000
000002c0: 0000 0000 0000 0000 0000 0000 0000 0000
000002d0: 0000 0000 0000 0000 0000 0000 0000 0000
000002e0: 0000 0000 0000 0000 0000 0000 0000 0000
000002f0: 0000 0000 0000 0000 0000 0000 0000 0000
00000300: 0000 803f 0000 803f 0000 803f 0000 803f
00000310: 0000 803f 0000 803f 0000 803f 0000 803f
00000320: 0000 0000 0000 0000 0000 0000 0000 0000
00000330: 0000 0000 0000 0000 0000 0000 0000 0000
00000340: 0000 0000 0000 0000 0000 0000 0000 0000
00000350: 0000 0000 0000 0000 0000 0000 0000 0000
00000360: 0000 0000 0000 0000 0000 0000 0000 0000
00000370: 0000 0000 0000 0000 0000 0000 0000 0000
00000380: 0000 0000 0000 0000 0000 0000 0000 0000
00000390: 0000 0000 0000 0000 0000 0000 0000 0000
000003a0: 0000 0000 0000 0000 0000 0000 0000 0000
000003b0: 0000 0000 0000 0000 0000 0000 0000 0000
000003c0: 0000 803f 0000 803f 0000 803f 0000 803f
000003d0: 0000 803f 0000 803f 0000 803f 0000 803f
000003e0: 0000 0000 0000 0000 0000 0000 0000 0000
000003f0: 0000 0000 0000 0000 0000 0000 0000 0000

W f4 [48, 4]
-0.059779014 0.029818607 801.9892 8.943578 0.060872532 -0.05838505 -348.1828 -5.299669
-0.046276636 -0.05980286 -1135.894 -4.672742 -0.058645207 -0.03352016 865.3837 6.932429
0.042546064 -0.007783864 -1062.6666 -4.4545913 0.058847193 0.09710654 1721.5027 9.223228
0.004139391 0.06668223 -1891.1852 -5.250385 -0.05092936 -0.15348092 -1289.0641 -9.349151
0.14894561 0.24783729 4661.9697 21.036028 -0.06994166 0.109920315 -1243.935 -18.732117
0.08381117 -0.11971107 1816.5793 20.387106 -0.032449376 -0.040562015 -3441.4734 -22.190346
0.023570973 0.14090265 3337.893 14.324318 0.24953422 0.4836366 8230.548 40.004486
0.010379927 -0.048146077 -40.338203 -3.605126 0.058147147 0.07476635 481.98483 -3.842958
-0.11482683 0.26654768 -1720.456 -8.706725 -0.027733428 -0.44101375 2400.197 6.244759
0.022553988 -0.27992904 -2215.7856 -35.025948 0.04561644 0.05114317 4885.6113 50.043255
-0.24467713 -0.29192266 -2098.4966 -11.935015 -0.39253676 -0.23276502 -9158.885 -48.353962
-0.117466785 -0.33187804 -3083.4102 -32.064537 -0.34874302 -0.24243721 -11892.917 -60.28679
0.06376945 -0.7492345 -12562.55 -93.7152 -0.036056247 -0.72078097 -6070.0894 -53.63631
-0.11272751 0.40186596 -11209.403 -55.56436 0.13842137 -0.049093857 5817.826 21.151335
-0.049490318 -0.8041845 -7349.0522 -50.60925 -0.15368818 -0.062164452 -17935.494 -105.64438
-0.095061146 0.2006784 795.7114 18.781647 0.1709628 0.6577743 15386.838 96.82037
0.2076951 -0.0027611165 724.22614 -27.465773 -0.012019623 -0.12562077 -5608.2217 -28.614342
-0.12108083 -0.3212935 3544.9524 29.519007 -0.16260464 -0.05834358 -2341.345 -11.466307
-0.34687817 -0.61983496 -9930.782 -33.487606 0.30505207 1.1644111 19757.773 110.44701
-0.34356508 -0.121486515 3445.7617 35.27842 0.040647063 -0.5685737 -14003.306 -95.41014
-0.16669261 -0.8147351 -4347.4536 -15.911771 0.035209965 0.0011685153 -1567.8798 -8.157815
-0.1225723 -0.260335 -5037.8833 -34.406662 -0.025269464 -0.043249276 -10519.34 -56.312336
-0.02792157 -0.40318766 6611.97 41.273613 0.07980716 0.41986123 -1179.4786 -3.1082964
-0.0029788339 0.76601505 9541.907 42.039425 0.24287899 0.37259406 8358.619 51.94333
00000000: d7da 74bd 2746 f43c 4f7f 4844 e518 0f41
00000010: 7a55 793d 2a25 6fbd 6617 aec3 e396 a9c0
00000020: 928c 3dbd d8f3 74bd 9cfc 8dc4 1a87 95c0
00000030: f535 70bd 6f4c 09bd 8f58 5844 75d6 dd40
00000040: c844 2e3d c90f ffbb 55d5 84c4 038c 8ec0
00000050: c109 713d cbdf c63d 1630 d744 5892 1341
00000060: baa3 873b b190 883d ed65 ecc4 2703 a8c0
00000070: 4e9b 50bd 1a2a 1dbe 0d22 a1c4 1f96 15c1
00000080: 3385 183e 0fc9 7d3e c2af 9145 c949 a841
00000090: 933d 8fbd e71d e13d ec7d 9bc4 60db 95c1
000000a0: 31a5 ab3d 142b f5bd 8a12 e344 cb18 a341
000000b0: a3e9 04bd 5b24 26bd 9317 57c5 d485 b1c1
000000c0: ea17 c13c c948 103e 4a9e 5045 6830 6541
000000d0: e685 7f3e 379f f73e 319a 0046 9804 2042
000000e0: 9210 2a3c d234 45bd 525a 21c2 62ba 66c0
000000f0: b42b 6e3d 1a1f 993d 0ffe f043 06f3 75c0
00000100: 542a ebbd f078 883e 980e d7c4 bf4e 0bc1
00000110: 3731 e3bc 8ecc e1be 2703 1645 11d5 c740
00000120: 24c3 b83c dc52 8fbe 927c 0ac5 921a 0cc2
00000130: 4ed8 3a3d 807b 513d e4ac 9845 4b2c 4842
00000140: a48c 7abe e376 95be f227 03c5 d2f5 3ec1
00000150: 94fa c8be f459 6ebe 8a1b 0fc6 756a 41c2
00000160: 6d92 f0bd ebeb a9be 90b6 40c5 1642 00c2
00000170: 728e b2be 7641 78be abd3 39c6 ac25 71c2
00000180: 8f99 823d d5cd 3fbf 334a 44c6 2f6e bbc2
00000190: b7af 13bd 1a85 38bf b7b0 bdc5 958b 56c2
000001a0: aedd e6bd 60c1 cd3e 9d25 2fc6 e841 5ec2
000001b0: 55be 0d3e a416 49bd 9cce b545 ef35 a941
000001c0: 5cb6 4abd 09df 4dbf 6ba8 e5c5 df6f 4ac2
000001d0: 6f60 1dbe 27a0 7ebd fd1e 8cc6 ec49 d3c2
000001e0: 6baf c2bd a37e 4d3e 88ed 4644 d040 9641
000001f0: df10 2f3e e663 283f 5a6b 7046 08a4 c142
00000200: 06ae 543e d9f3 34bb 790e 3544 e7b9 dbc1
00000210: f4ed 44bc bba2 00be c641 afc5 2cea e4c1
00000220: 3af9 f7bd 9580 a4be 3d8f 5d45 ed26 ec41
00000230: d581 26be aef9 6ebd 8555 12c5 fe75 37c1
00000240: 049a b1be 81ad 1ebf 212b 1bc6 4ff3 05c2
00000250: c92f 9c3e 6c0b 953f 8c5b 9a46 dee4 dc42
00000260: c3e7 afbe eccd f8bd 305c 5745 1a1d 0d42
00000270: 897d 263d 0c8e 11bf 39cd 5ac6 fed1 bec2
00000280: 78b1 2abe 7b92 50bf a1db 87c5 9d96 7ec1
00000290: 5338 103d de28 993a 27fc c3c4 6986 02c1
000002a0: 3007 fbbd a14a 85be 116f 9dc5 6ca0 09c2
000002b0: e801 cfbc 2726 31bd 5c5d 24c6 d53f 61c2
000002c0: c7bb e4bc 9d6e cebe c39f ce45 2e18 2542
000002d0: f071 a33d 0df8 d63e 516f 93c4 54ee 46c0
000002e0: 8a38 43bb 9019 443f a117 1546 5f28 2842
000002f0: 45b5 783e a6c4 be3e 7a9a 0246 f8c5 4f42

scaler_mean f4 [113]
7166.2354 111.39096 807.42816 38.739933 4.753309 77.24589 1.3987037 863.8709
146.57655 1.0804261 1.9441319 15.736056 146.55972 -2.7107102e-05 -0.00017118451 0.000792147
-0.0008741733 -0.0031221772 -0.006470523 0.03481691 0.28539577 0.3147243 7166.203 7166.173
7166.1943 7166.14 7166.4136 7167.281 7167.931 7167.5977 7166.2036 7166.1885
7166.2173 7166.536 7166.9844 111.39119 111.39188 111.39253 111.39291 111.37836
111.386444 111.38919 111.39125 111.39134 111.39212 111.39095 111.386856 111.3864
807.45715 807.4845 807.517 807.6249 807.7979 808.00824 808.3586 807.43
807.4566 807.50275 807.60547 807.74036 807.9833 38.73945 38.737034 38.73572
38.730995 38.727165 38.728325 38.72777 38.71142 38.738804 38.736366 38.732807
38.73019 38.729115 4.7534575 4.753472 4.7534976 4.753472 4.7529116 4.7521367
4.751988 4.751602 4.7534127 4.753445 4.753378 4.752978 4.7524652 1.3986573
1.398635 1.3986316 1.3985233 1.3982817 1.3984747 1.3987194 1.397903 1.3986653
1.3986442 1.3984994 1.3984271 1.3984911 146.57878 146.58093 146.58284 146.5837
146.56094 146.56866 146.58401 146.5945 146.57875 146.58109 146.57771 146.5722
146.57295
00000000: e2f1 df45 2cc8 de42 67db 4944 b1f5 1a42
00000010: 1b1b 9840 e57d 9a42 b908 b33f bdf7 5744
00000020: 9993 1243 674b 8a3f 50d9 f83f e3c6 7b41
00000030: 4a8f 1243 0f64 e3b7 fe7f 33b9 16a8 4f3a
00000040: c728 65ba 719d 4cbb ae06 d4bb 2d9c 0e3d
00000050: 651f 923e 8b23 a13e a0f1 df45 62f1 df45
00000060: 8ef1 df45 1ff1 df45 4ff3 df45 3ffa df45
00000070: 73ff df45 c8fc df45 a1f1 df45 82f1 df45
00000080: bdf1 df45 4af4 df45 e0f7 df45 4ac8 de42
00000090: a4c8 de42 fac8 de42 2bc9 de42 b8c1 de42
000000a0: dcc5 de42 44c7 de42 52c8 de42 5ec8 de42
000000b0: c4c8 de42 2bc8 de42 12c6 de42 d6c5 de42
000000c0: 42dd 4944 02df 4944 17e1 4944 fee7 4944
000000d0: 11f3 4944 8700 4a44 f316 4a44 85db 4944
000000e0: 39dd 4944 2de0 4944 c0e6 4944 62ef 4944
000000f0: eefe 4944 32f5 1a42 b9f2 1a42 61f1 1a42
00000100: 8aec 1a42 9ee8 1a42 cee9 1a42 3de9 1a42
00000110: 7ed8 1a42 89f4 1a42 0af2 1a42 65ee 1a42
00000120: b7eb 1a42 9dea 1a42 531c 9840 711c 9840
00000130: a71c 9840 711c 9840 da17 9840 8111 9840
00000140: 4910 9840 200d 9840 f51b 9840 391c 9840
00000150: ac1b 9840 6518 9840 3214 9840 3407 b33f
00000160: 7906 b33f 5c06 b33f d002 b33f e5fa b23f
00000170: 3801 b33f 3d09 b33f 7cee b23f 7707 b33f
00000180: c606 b33f 0702 b33f a9ff b23f c201 b33f
00000190: 2b94 1243 b894 1243 3595 1243 6d95 1243
000001a0: 9a8f 1243 9491 1243 8295 1243 3198 1243
000001b0: 2994 1243 c294 1243 e593 1243 7c92 1243
000001c0: ad92 1243

scaler_scale f4 [113]
1394.9054 168.62004 740.61346 15.87786 8.501583 17.824041 0.77911574 7.4969473
218.82565 0.031761687 1.082934 24.320536 218.78304 0.7071657 0.7070478 0.70716745
0.70704514 0.70779186 0.70638454 0.18331583 0.45160273 0.46440598 1394.9312 1394.942
1394.9525 1394.9523 1395.2676 1395.357 1395.6754 1395.6737 1366.1675 1293.6677
1128.0632 947.629 886.58765 168.62001 168.61981 168.61954 168.61935 168.62437
168.61847 168.61745 168.61726 164.12985 151.21077 116.67254 74.04386 72.71301
740.60034 740.59595 740.5888 740.6213 740.6287 740.5656 740.89233 740.9591
731.6343 714.82214 679.4338 616.76135 531.9815 15.878036 15.878688 15.878832
15.876313 15.874582 15.87622 15.878246 15.880251 15.547373 14.903156 13.948372
13.145353 12.517962 8.501408 8.501379 8.501394 8.50151 8.501955 8.502842
8.503188 8.503731 8.442675 8.311386 7.996082 7.674063 7.5876923 0.7790422
0.7789476 0.7790016 0.7788719 0.7788123 0.7788939 0.7788363 0.77881247 0.7219189
0.6591576 0.5680869 0.4754594 0.40431094 218.82631 218.82619 218.82545 218.82494
218.82797 218.82104 218.823 218.82733 210.98985 192.32503 145.08926 85.50614
80.43151
00000000: f95c ae44 bb9e 2843 4327 3944 b70b 7e41
00000010: 7c06 0841 a397 8e41 2174 473f fee6 ef40
00000020: 5ed3 5a43 8b18 023d 959d 8a3f 7590 c241
00000030: 75c8 5a43 d008 353f 1601 353f ed08 353f
00000040: e900 353f d931 353f 9ed5 343f 25b7 3b3e
00000050: 7938 e73e 9fc6 ed3e cc5d ae44 255e ae44
00000060: 7b5e ae44 795e ae44 9068 ae44 6d6b ae44
00000070: 9d75 ae44 8f75 ae44 5cc5 aa44 5eb5 a144
00000080: 0602 8d44 42e8 6c44 9ca5 5d44 b99e 2843
00000090: ac9e 2843 9a9e 2843 8e9e 2843 d79f 2843
000000a0: 549e 2843 119e 2843 059e 2843 3e21 2443
000000b0: f535 1743 5758 e942 7516 9442 106d 9142
000000c0: 6c26 3944 2426 3944 af25 3944 c327 3944
000000d0: 3d28 3944 3324 3944 1c39 3944 623d 3944
000000e0: 98e8 3644 9eb4 3244 c3db 2944 ba30 1a44
000000f0: d1fe 0444 6f0c 7e41 1b0f 7e41 b20f 7e41
00000100: 6105 7e41 4afe 7d41 ff04 7e41 4c0d 7e41
00000110: 8215 7e41 0ac2 7841 5473 6e41 882c 5f41
00000120: 5e53 5241 9349 4841 c405 0841 a605 0841
00000130: b605 0841 2f06 0841 0208 0841 a40b 0841
00000140: 0f0d 0841 480f 0841 3215 0741 70fb 0441
00000150: e7df ff40 ed91 f540 60ce f240 4f6f 473f
00000160: 1c69 473f a66c 473f 2664 473f 3e60 473f
00000170: 9765 473f d161 473f 4160 473f adcf 383f
00000180: 8dbe 283f 256e 113f 6a6f f33e d801 cf3e
00000190: 89d3 5a43 81d3 5a43 51d3 5a43 2fd3 5a43
000001a0: f6d3 5a43 30d2 5a43 b0d2 5a43 ccd3 5a43
000001b0: 67fd 5243 3553 4043 da16 1143 2503 ab42
000001c0: efdc a042
