artifacts/dcenn_encoder.pt (torch, 43138 bytes, 5 tensors)

mask f4 [48, 48]
0	0x3f800000	1.0
1	0x3f800000	1.0
2	0x3f800000	1.0
3	0x3f800000	1.0
4	0x3f800000	1.0
5	0x3f800000	1.0
6	0x3f800000	1.0
7	0x3f800000	1.0
8	0x00000000	0.0
9	0x00000000	0.0
10	0x00000000	0.0
11	0x00000000	0.0
12	0x00000000	0.0
13	0x00000000	0.0
14	0x00000000	0.0
15	0x00000000	0.0
16	0x00000000	0.0
17	0x00000000	0.0
18	0x00000000	0.0
19	0x00000000	0.0
20	0x00000000	0.0
21	0x00000000	0.0
22	0x00000000	0.0
23	0x00000000	0.0
24	0x00000000	0.0
25	0x00000000	0.0
26	0x00000000	0.0
27	0x00000000	0.0
28	0x00000000	0.0
29	0x00000000	0.0
30	0x00000000	0.0
31	0x00000000	0.0
32	0x00000000	0.0
33	0x00000000	0.0
34	0x00000000	0.0
35	0x00000000	0.0
36	0x00000000	0.0
37	0x00000000	0.0
38	0x00000000	0.0
39	0x00000000	0.0
40	0x00000000	0.0
41	0x00000000	0.0
42	0x00000000	0.0
43	0x00000000	0.0
44	0x00000000	0.0
45	0x00000000	0.0
46	0x00000000	0.0
47	0x00000000	0.0
48	0x3f800000	1.0
49	0x3f800000	1.0
50	0x3f800000	1.0
51	0x3f800000	1.0
52	0x3f800000	1.0
53	0x3f800000	1.0
54	0x3f800000	1.0
55	0x3f800000	1.0
56	0x00000000	0.0
57	0x00000000	0.0
58	0x00000000	0.0
59	0x00000000	0.0
60	0x00000000	0.0
61	0x00000000	0.0
62	0x00000000	0.0
63	0x00000000	0.0
64	0x00000000	0.0
65	0x00000000	0.0
66	0x00000000	0.0
67	0x00000000	0.0
68	0x00000000	0.0
69	0x00000000	0.0
70	0x00000000	0.0
71	0x00000000	0.0
72	0x00000000	0.0
73	0x00000000	0.0
74	0x00000000	0.0
75	0x00000000	0.0
76	0x00000000	0.0
77	0x00000000	0.0
78	0x00000000	0.0
79	0x00000000	0.0
80	0x00000000	0.0
81	0x00000000	0.0
82	0x00000000	0.0
83	0x00000000	0.0
84	0x00000000	0.0
85	0x00000000	0.0
86	0x00000000	0.0
87	0x00000000	0.0
88	0x00000000	0.0
89	0x00000000	0.0
90	0x00000000	0.0
91	0x00000000	0.0
92	0x00000000	0.0
93	0x00000000	0.0
94	0x00000000	0.0
95	0x00000000	0.0
96	0x3f800000	1.0
97	0x3f800000	1.0
98	0x3f800000	1.0
99	0x3f800000	1.0
100	0x3f800000	1.0
101	0x3f800000	1.0
102	0x3f800000	1.0
103	0x3f800000	1.0
104	0x00000000	0.0
105	0x00000000	0.0
106	0x00000000	0.0
107	0x00000000	0.0
108	0x00000000	0.0
109	0x00000000	0.0
110	0x00000000	0.0
111	0x00000000	0.0
112	0x00000000	0.0
113	0x00000000	0.0
114	0x00000000	0.0
115	0x00000000	0.0
116	0x00000000	0.0
117	0x00000000	0.0
118	0x00000000	0.0
119	0x00000000	0.0
120	0x00000000	0.0
121	0x00000000	0.0
122	0x00000000	0.0
123	0x00000000	0.0
124	0x00000000	0.0
125	0x00000000	0.0
126	0x00000000	0.0
127	0x00000000	0.0
128	0x00000000	0.0
129	0x00000000	0.0
130	0x00000000	0.0
131	0x00000000	0.0
132	0x00000000	0.0
133	0x00000000	0.0
134	0x00000000	0.0
135	0x00000000	0.0
136	0x00000000	0.0
137	0x00000000	0.0
138	0x00000000	0.0
139	0x00000000	0.0
140	0x00000000	0.0
141	0x00000000	0.0
142	0x00000000	0.0
143	0x00000000	0.0
144	0x3f800000	1.0
145	0x3f800000	1.0
146	0x3f800000	1.0
147	0x3f800000	1.0
148	0x3f800000	1.0
149	0x3f800000	1.0
150	0x3f800000	1.0
151	0x3f800000	1.0
152	0x00000000	0.0
153	0x00000000	0.0
154	0x00000000	0.0
155	0x00000000	0.0
156	0x00000000	0.0
157	0x00000000	0.0
158	0x00000000	0.0
159	0x00000000	0.0
160	0x00000000	0.0
161	0x00000000	0.0
162	0x00000000	0.0
163	0x00000000	0.0
164	0x00000000	0.0
165	0x00000000	0.0
166	0x00000000	0.0
167	0x00000000	0.0
168	0x00000000	0.0
169	0x00000000	0.0
170	0x00000000	0.0
171	0x00000000	0.0
172	0x00000000	0.0
173	0x00000000	0.0
174	0x00000000	0.0
175	0x00000000	0.0
176	0x00000000	0.0
177	0x00000000	0.0
178	0x00000000	0.0
179	0x00000000	0.0
180	0x00000000	0.0
181	0x00000000	0.0
182	0x00000000	0.0
183	0x00000000	0.0
184	0x00000000	0.0
185	0x00000000	0.0
186	0x00000000	0.0
187	0x00000000	0.0
188	0x00000000	0.0
189	0x00000000	0.0
190	0x00000000	0.0
191	0x00000000	0.0
192	0x3f800000	1.0
193	0x3f800000	1.0
194	0x3f800000	1.0
195	0x3f800000	1.0
196	0x3f800000	1.0
197	0x3f800000	1.0
198	0x3f800000	1.0
199	0x3f800000	1.0
200	0x00000000	0.0
201	0x00000000	0.0
202	0x00000000	0.0
203	0x00000000	0.0
204	0x00000000	0.0
205	0x00000000	0.0
206	0x00000000	0.0
207	0x00000000	0.0
208	0x00000000	0.0
209	0x00000000	0.0
210	0x00000000	0.0
211	0x00000000	0.0
212	0x00000000	0.0
213	0x00000000	0.0
214	0x00000000	0.0
215	0x00000000	0.0
216	0x00000000	0.0
217	0x00000000	0.0
218	0x00000000	0.0
219	0x00000000	0.0
220	0x00000000	0.0
221	0x00000000	0.0
222	0x00000000	0.0
223	0x00000000	0.0
224	0x00000000	0.0
225	0x00000000	0.0
226	0x00000000	0.0
227	0x00000000	0.0
228	0x00000000	0.0
229	0x00000000	0.0
230	0x00000000	0.0
231	0x00000000	0.0
232	0x00000000	0.0
233	0x00000000	0.0
234	0x00000000	0.0
235	0x00000000	0.0
236	0x00000000	0.0
237	0x00000000	0.0
238	0x00000000	0.0
239	0x00000000	0.0
240	0x3f800000	1.0
241	0x3f800000	1.0
242	0x3f800000	1.0
243	0x3f800000	1.0
244	0x3f800000	1.0
245	0x3f800000	1.0
246	0x3f800000	1.0
247	0x3f800000	1.0
248	0x00000000	0.0
249	0x00000000	0.0
250	0x00000000	0.0
251	0x00000000	0.0
252	0x00000000	0.0
253	0x00000000	0.0
254	0x00000000	0.0
255	0x00000000	0.0

in_proj.weight f4 [48, 114]
0	0x3dda1012	0.106475964
1	0x3b035493	0.0020039424
2	0x3d924e0d	0.07143793
3	0x3dafebf5	0.08589927
4	0x3c94de74	0.01817248
5	0xbe05a66d	-0.13051768
6	0x3e0ca890	0.13736176
7	0x3d92537a	0.07144828
8	0xbe067b01	-0.1313286
9	0xbe00e3e6	-0.12586936
10	0x3d470ec7	0.048598077
11	0x3dfb28ee	0.12263666
12	0xbd527381	-0.051379684
13	0xbdcb2651	-0.09919418
14	0x3cbd3cb4	0.023100235
15	0xbda0bf16	-0.07848947
16	0xbb42ce77	-0.0029725113
17	0xbde4aa15	-0.11165253
18	0x3d77299a	0.06034241
19	0xbd096038	-0.033539027
20	0xbd25a38a	-0.040439166
21	0x3d99087b	0.07472321
22	0xbe10a397	-0.14124905
23	0xbdd181aa	-0.102298096
24	0xbd1050e4	-0.035233393
25	0xbe11d335	-0.14240725
26	0x3cb38cf2	0.021917794
27	0xbde6b7a4	-0.112654954
28	0xbcb40535	-0.02197514
29	0x3d8119ea	0.06303771
30	0xbcd2dca2	-0.025739972
31	0x3dd779ed	0.10521302
32	0xbd8fdb03	-0.07024195
33	0xbe129c7b	-0.14317505
34	0xbe00fc38	-0.12596214
35	0x3db9bc8a	0.09069164
36	0x3db0e7d4	0.08637968
37	0xbd6378b4	-0.055535033
38	0xbcce2e84	-0.025168665
39	0xbd1b4772	-0.037909932
40	0xbae9f614	-0.0017849826
41	0x3e205d18	0.15660512
42	0xbb4c74d2	-0.003119756
43	0x3c003f5e	0.007827608
44	0x3d15b35e	0.03654801
45	0x3e199f04	0.15002066
46	0x3dea06aa	0.11427052
47	0x3cf36192	0.029709611
48	0x3d5c1734	0.053733066
49	0x3d93a0ae	0.072083816
50	0x3db44cb3	0.08803692
51	0xbd9ba214	-0.07599273
52	0x3b875634	0.0041301493
53	0x3d3d4e5c	0.046217307
54	0x3d6b229b	0.05740605
55	0xbcb00510	-0.021486789
56	0x3d423cc6	0.04742124
57	0x3d1932ec	0.03740208
58	0x3d550a9a	0.052012064
59	0xbd2f2b55	-0.042765934
60	0x3caf81db	0.021424225
61	0xbd47d56b	-0.048787516
62	0xbc676ef7	-0.014125577
63	0xbd9f7c6f	-0.07787406
64	0x3e16297b	0.14664261
65	0x3e1a5296	0.15070567
66	0x3c54b5c3	0.0129827885
67	0xbd1ce003	-0.03829957
68	0x3db7e3ba	0.08978982
69	0x3e073df8	0.13207233
70	0x3dc1bb12	0.09459509
71	0x3a7a7e0a	0.00095555244
72	0x3c6edb74	0.014578689
73	0x3d751ed3	0.05984385
74	0xbde52c2f	-0.11190068
75	0x3e01b648	0.12667191
76	0xbda65628	-0.08121902
77	0xbd610110	-0.054932654
78	0xbdf50cb2	-0.11965312
79	0x3e12dfde	0.14343211
80	0xbd391047	-0.04518154
81	0xbe10dfce	-0.14147875
82	0xbe0e7ccd	-0.13914795
83	0xbdd2f85c	-0.10301277
84	0x3e179e62	0.14806512
85	0xbd77bccf	-0.060482796
86	0x3db9a59a	0.09064789
87	0x3d7439ef	0.059625562
88	0xba878074	-0.0010337965
89	0xbdc0c92b	-0.0941337
90	0xbdb860dc	-0.090028495
91	0x3e07d887	0.13266192
92	0xbd7bd90b	-0.061486285
93	0xbdaef4fc	-0.08542821
94	0x3c9bb93e	0.019009229
95	0x3bd32fe7	0.0064449194
96	0x3da76962	0.08174397
97	0x3cc99686	0.024607908
98	0xbb224b3f	-0.0024764088
99	0xbd548d98	-0.051892847
100	0x3c2a652f	0.010400101
101	0xbd8f7558	-0.070048034
102	0x3e13035b	0.14356749
103	0xbd2c2301	-0.04202557
104	0xbcfc0507	-0.030764116
105	0x3ceadcdb	0.028669765
106	0x3d21df48	0.03951958
107	0x3db1508a	0.0865794
108	0xbce01a05	-0.027356157
109	0x3d72b157	0.059251156
110	0xbd90d13a	-0.07071157
111	0xbd5b326b	-0.05351488
112	0xbd2a9774	-0.041648343
113	0x3d364339	0.044497702
114	0xba60885a	-0.000856524
115	0x3c843797	0.016139789
116	0x3de30385	0.11084656
117	0x3d9e7329	0.07736809
118	0xbcd34811	-0.0257912
119	0x3de44129	0.11145241
120	0x3d4f9d10	0.050686896
121	0x3d7d2079	0.061798546
122	0xbd25f5fd	-0.040517796
123	0x3de89af9	0.11357684
124	0xbddafff7	-0.10693353
125	0x3db77552	0.08957924
126	0xbd97ae11	-0.074062474
127	0x3e1d72a3	0.15375762
128	0x3e196e16	0.149834
129	0x3d091139	0.03346369
130	0x3d468a6b	0.04847185
131	0xbdc6f90b	-0.0971547
132	0xbe0aa7e0	-0.13540602
133	0x3c7d3ecc	0.0154568665
134	0xbccb9f31	-0.024856182
135	0x3d9749c0	0.073871136
136	0x3e169dcb	0.1470863
137	0xbdfba5d5	-0.12287489
138	0x3dd5c98f	0.10438835
139	0xbe025e7b	-0.12731354
140	0x3e039abd	0.12851997
141	0xbde12256	-0.10992877
142	0x3d7ff9ee	0.06249421
143	0x3d71bf7e	0.05902051
144	0x3e056293	0.13025884
145	0xbd9a4a76	-0.075337335
146	0xbcd401a0	-0.025879681
147	0xbc785d81	-0.015159012
148	0xbdfaedf5	-0.12252418
149	0xbdb2142d	-0.086952545
150	0xbe0a390a	-0.13498321
151	0x3e0eda7e	0.13950536
152	0x3e0450dc	0.1292147
153	0x3e01017e	0.12598225
154	0x3e0d893e	0.13821885
155	0xbe11e8e6	-0.14249
156	0x3dee4fa7	0.11636286
157	0x3d01a6df	0.03165328
158	0x3d8e5bd3	0.06951108
159	0xbe07f77b	-0.13278
160	0xbdba1d05	-0.09087566
161	0x3d184d8c	0.03718333
162	0xbd0d4302	-0.03448773
163	0xbe1c22cb	-0.15247647
164	0x3e13a32a	0.14417711
165	0x3dad1f1d	0.084532
166	0xbcf391ef	-0.029732672
167	0x3cb48e67	0.022040559
168	0xbde80f71	-0.1133107
169	0x3de1bb73	0.11022081
170	0xbdd4678b	-0.10371312
171	0xbdb30a55	-0.08742205
172	0x3e0f7120	0.14007998
173	0xbd5588f3	-0.052132558
174	0x3d5e52df	0.05427825
175	0xbe07e49b	-0.132708
176	0x3daf7768	0.08567697
177	0x3da51d4c	0.080622286
178	0x3e0a541e	0.1350865
179	0x3e10ce07	0.14141093
180	0x3da5c0e1	0.08093429
181	0x3ddd2ad3	0.10799184
182	0xbd8df4c7	-0.06931453
183	0xbd9e12e9	-0.077184506
184	0xbb5efc9e	-0.0034025083
185	0xbc11b9e0	-0.008894414
186	0x3ceca649	0.028887885
187	0xbd36aa45	-0.044595975
188	0xbd9a0111	-0.07519735
189	0x3dbf221c	0.09332678
190	0xbddb63d6	-0.107124016
191	0xbb3263aa	-0.002722005
192	0xbdf78be7	-0.12087231
193	0xbd62357b	-0.055226784
194	0xbc389a14	-0.011267204
195	0xbd7d8d73	-0.061902475
196	0xbe0a69e7	-0.13516961
197	0x3dea48a7	0.114396386
198	0xbdf0a820	-0.11750817
199	0xbdf938f9	-0.1216907
200	0x3dbbd4fa	0.091714814
201	0x3c89e8fa	0.016834725
202	0xbd5ae8fd	-0.05344485
203	0x3b065244	0.0020495811
204	0xbc822150	-0.015885025
205	0x3dbfeafa	0.0937099
206	0x3e15bf25	0.14623697
207	0x3d6f63fb	0.05844496
208	0xbdeccdda	-0.115627006
209	0xbd2f6c8b	-0.042828124
210	0x3e14529d	0.1448464
211	0xbd2066ec	-0.039160654
212	0x3d3c3f4d	0.045958806
213	0x3e049e15	0.12950929
214	0xbd70a208	-0.058748275
215	0x3daba0ba	0.083802655
216	0xbdc18d49	-0.09450776
217	0x3d14a49d	0.0362898
218	0xbdee9429	-0.11649353
219	0xbd8f4451	-0.06995452
220	0xbd2a719a	-0.041612245
221	0xbd6d6d29	-0.05796543
222	0x3e1bd23f	0.15216921
223	0x3bdd7665	0.0067584985
224	0x3d0fea14	0.035135344
225	0x3db502eb	0.08838447
226	0x3dd3a798	0.103347
227	0x3d38a507	0.045079257
228	0x3d211de2	0.03933514
229	0xbd8b9f83	-0.06817534
230	0xbdc94f06	-0.09829526
231	0x3ba6cd16	0.005090366
232	0x3de4c7b0	0.111709
233	0x3dd825fa	0.105541185
234	0x3d53aeb9	0.0516803
235	0x3cc582ad	0.024110163
236	0x3db83b28	0.08995658
237	0xbe09667e	-0.13418004
238	0xbe16e065	-0.14734037
239	0x3d45b3be	0.04826712
240	0x3df9f095	0.122040905
241	0x3e1e1e57	0.15441261
242	0xbd100f71	-0.035170976
243	0x3dcb8e1f	0.09939217
244	0xbdf3ea8b	-0.1190997
245	0x3c7a7370	0.0152863115
246	0xbe0f5f0a	-0.14001098
247	0x3b5d1ed9	0.003374031
248	0x3b9abc36	0.0047221435
249	0xbd8fd0ee	-0.07022272
250	0xbdff6952	-0.1247126
251	0xbc3aed46	-0.011409109
252	0xbdb95597	-0.09049528
253	0xbddfa5fc	-0.10920331
254	0xbdc15220	-0.09439492
255	0xbdbc05c7	-0.091807894

in_proj.bias f4 [48]
0	0xbb42256b	-0.0029624354
1	0x3b3e1c10	0.0029008426
2	0xbb3f1324	-0.0029155696
3	0x3b44e166	0.0030041575
4	0xb92af70c	-0.00016304496
5	0x3b43e071	0.0029888416
6	0x3b3d7082	0.0028906171
7	0xbb44e587	-0.0030044036
8	0xbb4442b0	-0.0029946975
9	0xbb43ef09	-0.0029897115
10	0xbb440395	-0.0029909362
11	0xbb44bf2e	-0.0030021179
12	0xbb3a7dac	-0.0028456254
13	0x3b281a1a	0.0025650323
14	0x3b4417c6	0.0029921397
15	0xbb447782	-0.0029978459
16	0x3b44d407	0.0030033605
17	0xbb43c0e2	-0.0029869606
18	0x3b4083d8	0.002937546
19	0xbb44b634	-0.0030015828
20	0x3b44cec2	0.0030030464
21	0xbb37f205	-0.002806784
22	0xbb403fd8	-0.002933493
23	0xbb449db2	-0.003000122
24	0x3b32b58e	0.002726886
25	0x3b443352	0.0029937816
26	0xbb4206c5	-0.0029606086
27	0xb98df1f6	-0.0002707389
28	0x3b3805f6	0.0028079725
29	0x3b44e552	0.0030043912
30	0xbb44d2cd	-0.0030032874
31	0x3b174256	0.002308031
32	0xbb427846	-0.002967374
33	0x3b43f737	0.002990199
34	0x3b448e43	0.002999202
35	0x3b426a13	0.0029665276
36	0xbb445ef5	-0.0029963825
37	0x3b328ed5	0.002724578
38	0x3b41077e	0.0029453929
39	0x3b44e46f	0.0030043384
40	0x3b4150f0	0.0029497705
41	0xbb423bc8	-0.0029637683
42	0x3b44e002	0.0030040746
43	0x3b43df82	0.002988786
44	0xbb1ad9b7	-0.0023628303
45	0xbb446b1c	-0.0029971069
46	0xbb44745a	-0.0029976577
47	0x3b44b9d0	0.003001798

cell.weight f4 [48, 48]
0	0xbd0f2df8	-0.03495595
1	0x3cf67df9	0.030089365
2	0xbc02c39a	-0.007981205
3	0xbd2a552a	-0.041585125
4	0x3d2c176d	0.042014528
5	0xbc0c82c4	-0.008576099
6	0xbc45f814	-0.012083072
7	0xbcea0716	-0.028567832
8	0x3d2d545e	0.042316787
9	0x3ce4766e	0.027888503
10	0xbd2443ff	-0.04010391
11	0x3d129f89	0.035796676
12	0xbd2b527b	-0.041826706
13	0xbcd3a633	-0.025836086
14	0x3ca6b298	0.020348832
15	0xb999487c	-0.0002923644
16	0xbd34127f	-0.04396295
17	0x3c0c7c46	0.008574551
18	0xbd179914	-0.03701122
19	0xbc812b49	-0.01576771
20	0xb92e6e70	-0.00016635074
21	0x3d3ad1eb	0.04561035
22	0xbcb38cae	-0.021917667
23	0xbca76aff	-0.020436762
24	0xbd2224bc	-0.039585814
25	0xbbee3221	-0.0072691594
26	0x3cfce3c0	0.030870318
27	0xbce73d46	-0.02822746
28	0x3d2d1f8d	0.042266417
29	0xbceee1b5	-0.02916036
30	0x3d21e4d8	0.039524883
31	0x3cd3d2c2	0.025857333
32	0xbd038024	-0.032104626
33	0xbd222c0c	-0.039592788
34	0xbd2d25f7	-0.042272534
35	0xbcad974a	-0.021190304
36	0x3cebf1f7	0.028801901
37	0x3d3a81ff	0.04553413
38	0xbc17df61	-0.009269566
39	0x3bb4e0fe	0.005519985
40	0xbc878244	-0.016541608
41	0xbcfd8255	-0.030945936
42	0x3d3d1556	0.046162926
43	0xbb811500	-0.003939271
44	0xbb031ea7	-0.0020007284
45	0xbbd1ba2c	-0.0064003672
46	0xbb013958	-0.0019718017
47	0xbd24fa1e	-0.040277593
48	0xbd28324c	-0.04106359
49	0xbcf15bc7	-0.029462708
50	0xbc55d44a	-0.013051102
51	0xbcdb011b	-0.026733926
52	0x3c13300c	0.008983623
53	0xbcd2cc69	-0.025732236
54	0xbcd8680c	-0.0264168
55	0xbc8b7ce3	-0.017027324
56	0xbd29219c	-0.041291818
57	0xbc0ef69b	-0.0087257875
58	0xbca62365	-0.02028055
59	0x3cc74ed0	0.024329573
60	0x3c016768	0.007898189
61	0x3d083d68	0.033261687
62	0x3c82d4e9	0.015970664
63	0xbd3af80b	-0.04564671
64	0xbd1d1167	-0.038346674
65	0x38bb7a20	8.9396024e-05
66	0x3d0bfc46	0.034176134
67	0x3a4299f4	0.00074234535
68	0x3d071d8c	0.032987162
69	0x3c8273e0	0.015924394
70	0xbc59ca0f	-0.013292803
71	0x3b84c84f	0.004052199
72	0xbca2673d	-0.019824618
73	0xbd331e06	-0.043729804
74	0xbd1222cb	-0.035677712
75	0x3ce7285b	0.028217485
76	0xbd001283	-0.031267654
77	0x3c50191d	0.0127013
78	0xbc2039f4	-0.009779442
79	0x3a4415c9	0.0007480053
80	0xbd026223	-0.03183187
81	0x3c1639ed	0.009169084
82	0xbc920506	-0.017824661
83	0x3d3a7357	0.045520153
84	0xbd1a74f3	-0.037709188
85	0xbd21b342	-0.039477594
86	0xbd2b847e	-0.0418744
87	0x3cfc2573	0.030779576
88	0x3d2c5e47	0.042082097
89	0x3d12af3b	0.035811644
90	0xbd28f9ca	-0.041253842
91	0xbd042450	-0.032261193
92	0x399b3311	0.0002960195
93	0xbba61d55	-0.0050694146
94	0xbce47ace	-0.02789059
95	0xba95bd9a	-0.0011424304
96	0x3d0f6ef2	0.035017915
97	0xbd0d9a58	-0.03457102
98	0xbd133113	-0.035935473
99	0x3cc7c64d	0.02438655
100	0xbc9e4d37	-0.019323928
101	0xbd231b20	-0.03982079
102	0xbd280a78	-0.04102561
103	0x3d2c5f52	0.042083092
104	0x3d254494	0.040348604
105	0xbd316bd6	-0.04331573
106	0x3d2e678c	0.04257922
107	0x3c6e7ebe	0.014556585
108	0x3cbbe831	0.022937866
109	0xbc4e2c0b	-0.012583743
110	0xbceb6398	-0.028734013
111	0xbac01898	-0.0014655767
112	0xbc1d1355	-0.009587129
113	0x39345960	0.00017199432
114	0xbcddc00b	-0.027069112
115	0xbcd526c0	-0.026019454
116	0x3b9d741c	0.004805101
117	0xbd23051e	-0.039799802
118	0x3d1b1f18	0.03787145
119	0xbc4af487	-0.012387401
120	0x3c8b5c79	0.017011868
121	0x3b20fa56	0.0024563274
122	0x3cf73bc3	0.030179864
123	0x3c68a902	0.014200451
124	0xba00e79e	-0.0004917326
125	0xbc7d6fcc	-0.015468549
126	0x3cc25084	0.023720033
127	0x3c98b0b6	0.01863895
128	0x3c857ae4	0.01629395
129	0xbd0bcde2	-0.034131892
130	0xbcddd1f7	-0.027077658
131	0x3c3dc6e8	0.0115830675
132	0x3a9cdd17	0.0011967745
133	0xba5a4e63	-0.00083277206
134	0x3cc5a4aa	0.02412637
135	0xba8586f6	-0.0010187316
136	0xba3fb67b	-0.00073132635
137	0x3c8fc6ee	0.017550912
138	0xbd35da17	-0.04439744
139	0xbd00ef7e	-0.031478398
140	0xbcbc2cec	-0.02297064
141	0xbbd69cfb	-0.0065494752
142	0x3c428c3d	0.011874256
143	0x3c1f6374	0.009728301
144	0xbcb66aff	-0.022267817
145	0x3d02d795	0.031943876
146	0x3d291fe8	0.041290194
147	0x3d26db00	0.0407362
148	0x3cf007b4	0.029300548
149	0x3c9f36fd	0.0194354
150	0xbc481d16	-0.012213966
151	0xbd0a07ee	-0.03369897
152	0xbb31b2c0	-0.00271146
153	0x3cfff63e	0.031245347
154	0x3d16341f	0.0366708
155	0x3d083a1d	0.033258546
156	0x3d402e16	0.04691895
157	0x3a824bf0	0.0009940844
158	0xbd0af37b	-0.033923607
159	0x3c5d9298	0.01352372
160	0xbb8bbd21	-0.0042644893
161	0xbce050fe	-0.02738237
162	0x3a4f9962	0.0007919279
163	0xbb15cf22	-0.0022859056
164	0xbd4051b1	-0.046952907
165	0x3c178333	0.009247589
166	0x3c3e66ce	0.01162119
167	0x3b73b223	0.0037185035
168	0x39b38e58	0.00034247595
169	0x3c509c14	0.012732524
170	0x3cd6de75	0.026229123
171	0x3b38bd3a	0.002818896
172	0xb9b21da8	-0.000339729
173	0x3d1333e3	0.035938155
174	0xbc92eb2d	-0.017934406
175	0x3cdda6e9	0.027057128
176	0x3ce942bf	0.02847421
177	0x3d32df74	0.043670133
178	0xbd1f1e5e	-0.03884732
179	0x39521728	0.00020035787
180	0x3bbf2d72	0.005834275
181	0xbd2afc9d	-0.041744817
182	0x3c854826	0.016269755
183	0x3d385fb0	0.04501313
184	0xbd0bfb39	-0.03417513
185	0xbb74c696	-0.0037349812
186	0xbc5c3166	-0.013439512
187	0x3b9d7118	0.0048047416
188	0x3cd4b24f	0.02596393
189	0xbd3baae1	-0.04581726
190	0x3cc8dd87	0.024519695
191	0x3d21ab57	0.039470043
192	0x3c8a4328	0.016877726
193	0xbcc389ae	-0.023869362
194	0xbcb4573e	-0.022014257
195	0x3d4b72c5	0.04967
196	0x3cb4bc11	0.022062333
197	0xbd002e3b	-0.03129409
198	0xbcb4a2ef	-0.022050349
199	0x3d0926c0	0.03348422
200	0xbce0f532	-0.027460668
201	0xbc52e496	-0.012871882
202	0x3949b3fe	0.00019235906
203	0x3ae26f6a	0.0017275636
204	0x3cffdbc7	0.031232728
205	0x3b94f0cd	0.0045453073
206	0x3c46f987	0.012144453
207	0x397b6c68	0.0002397761
208	0xbcd0b7b5	-0.025478223
209	0x3d36a759	0.04459319
210	0xbd25d088	-0.040482074
211	0x3cd7917a	0.026314486
212	0x3c98b5db	0.018641403
213	0xb9a29d8b	-0.00031016427
214	0xbd183134	-0.0371563
215	0xbcb2395c	-0.021755867
216	0x3c8280c8	0.015930548
217	0xbcc13087	-0.02358271
218	0x3d233f71	0.039855424
219	0x3cab5a79	0.020917164
220	0x3b7a2854	0.003817101
221	0xbd117c0c	-0.03551869
222	0xbb391c32	-0.0028245565
223	0xbc59e204	-0.013298515
224	0x3d30d6a5	0.04317345
225	0xbc967a2a	-0.0183688
226	0x3c7bf2fc	0.015377756
227	0xbc8f54eb	-0.017496547
228	0xbcb7c0d1	-0.02243081
229	0x3d27c638	0.04096052
230	0xbd0d9c16	-0.034572683
231	0x3d1272d8	0.035754055
232	0xbd230c82	-0.03980685
233	0xbcbd113e	-0.02307951
234	0xbb27762d	-0.0025552616
235	0xbb3f9ec2	-0.0029238914
236	0x3d0273fb	0.03184889
237	0x3bab2729	0.005223174
238	0x3d2f703d	0.04283165
239	0x3d111169	0.035416994
240	0xbd058a04	-0.032602325
241	0xbd07ceca	-0.033156194
242	0x3bbef79a	0.0058278563
243	0xbc5d9c7a	-0.013526076
244	0xbd577adf	-0.052607413
245	0x3b507147	0.00318058
246	0xbc56e69e	-0.013116507
247	0xbd3e321b	-0.046434503
248	0xbd18a66b	-0.037268084
249	0xbd344a85	-0.04401638
250	0xbd2785e7	-0.040899184
251	0xbaec1592	-0.00180118
252	0x3a162057	0.0005726865
253	0x3cf08bb1	0.029363485
254	0xbc884ef7	-0.016639216
255	0x3c4d2726	0.012521541

cell.bias f4 [48]
0	0x3a8b71b0	0.001063874
1	0x3b3eda6b	0.0029121886
2	0xbb407470	-0.0029366277
3	0xbb38e7ab	-0.0028214257
4	0xbb3e9f64	-0.0029086703
5	0xbac43e35	-0.0014972152
6	0x3b3edaaf	0.0029122045
7	0xbb42dfde	-0.0029735486
8	0xbb42f756	-0.0029749474
9	0xbb1b5555	-0.0023701985
10	0xbb3fef52	-0.0029286933
11	0x3b3ca903	0.0028787262
12	0xb8ba9198	-8.89629e-05
13	0x3b41998d	0.0029540986
14	0x3b4292e0	0.0029689595
15	0xbb42a180	-0.0029698312
16	0xbb37c59f	-0.0028041375
17	0xbb1d64c4	-0.002401636
18	0x3b3e423d	0.002903118
19	0x3b2d381a	0.0026431144
20	0x3b3eda2b	0.0029121737
21	0xbb4333ee	-0.0029785591
22	0xbb42ecd4	-0.0029743211
23	0xbb4304c8	-0.0029757489
24	0xbb41cc7c	-0.0029571345
25	0x3b3fd9cf	0.002927411
26	0x3b3d8aec	0.0028921915
27	0x3adddaba	0.0016926148
28	0x3b3ef914	0.0029140161
29	0xbb3bf06e	-0.0028677243
30	0xbb3ff822	-0.0029292186
31	0xbb43a531	-0.00298531
32	0xbb3ca125	-0.0028782573
33	0xbb449120	-0.0029993728
34	0x3b3d70f9	0.0028906448
35	0x3b3e7a16	0.0029064468
36	0xb936d0dc	-0.00017434679
37	0x39cd7eb8	0.0003919506
38	0xbb0b2f12	-0.0021237773
39	0xbb3eecdc	-0.0029132878
40	0x3b406796	0.0029358617
41	0xbb298fcd	-0.0025873065
42	0x3b41f518	0.002959555
43	0xb9a5efc4	-0.00031649892
44	0xbb37c008	-0.0028038044
45	0xbb3f0d50	-0.0029152222
46	0xbb4390e9	-0.0029841012
47	0xbb1d4ca9	-0.0024001992
