artifacts/dcenn_encoder.pt (torch, 43547 bytes, 5 tensors)

mask f4 [48, 48]
1.0 1.0 1.0 1.0 1.0 1.0 1.0 1.0
0.0 0.0 0.0 0.0 0.0 0.0 0.0 0.0
0.0 0.0 0.0 0.0 0.0 0.0 0.0 0.0
0.0 0.0 0.0 0.0 0.0 0.0 0.0 0.0
0.0 0.0 0.0 0.0 0.0 0.0 0.0 0.0
0.0 0.0 0.0 0.0 0.0 0.0 0.0 0.0
1.0 1.0 1.0 1.0 1.0 1.0 1.0 1.0
0.0 0.0 0.0 0.0 0.0 0.0 0.0 0.0
0.0 0.0 0.0 0.0 0.0 0.0 0.0 0.0
0.0 0.0 0.0 0.0 0.0 0.0 0.0 0.0
0.0 0.0 0.0 0.0 0.0 0.0 0.0 0.0
0.0 0.0 0.0 0.0 0.0 0.0 0.0 0.0
1.0 1.0 1.0 1.0 1.0 1.0 1.0 1.0
0.0 0.0 0.0 0.0 0.0 0.0 0.0 0.0
0.0 0.0 0.0 0.0 0.0 0.0 0.0 0.0
0.0 0.0 0.0 0.0 0.0 0.0 0.0 0.0
0.0 0.0 0.0 0.0 0.0 0.0 0.0 0.0
0.0 0.0 0.0 0.0 0.0 0.0 0.0 0.0
1.0 1.0 1.0 1.0 1.0 1.0 1.0 1.0
0.0 0.0 0.0 0.0 0.0 0.0 0.0 0.0
0.0 0.0 0.0 0.0 0.0 0.0 0.0 0.0
0.0 0.0 0.0 0.0 0.0 0.0 0.0 0.0
0.0 0.0 0.0 0.0 0.0 0.0 0.0 0.0
0.0 0.0 0.0 0.0 0.0 0.0 0.0 0.0
1.0 1.0 1.0 1.0 1.0 1.0 1.0 1.0
0.0 0.0 0.0 0.0 0.0 0.0 0.0 0.0
0.0 0.0 0.0 0.0 0.0 0.0 0.0 0.0
0.0 0.0 0.0 0.0 0.0 0.0 0.0 0.0
0.0 0.0 0.0 0.0 0.0 0.0 0.0 0.0
0.0 0.0 0.0 0.0 0.0 0.0 0.0 0.0
1.0 1.0 1.0 1.0 1.0 1.0 1.0 1.0
0.0 0.0 0.0 0.0 0.0 0.0 0.0 0.0
00000000: 0000 803f 0000 803f 0000 803f 0000 803f
00000010: 0000 803f 0000 803f 0000 803f 0000 803f
00000020: 0000 0000 0000 0000 0000 0000 0000 0000
00000030: 0000 0000 0000 0000 0000 0000 0000 0000
00000040: 0000 0000 0000 0000 0000 0000 0000 0000
00000050: 0000 0000 0000 0000 0000 0000 0000 0000
00000060: 0000 0000 0000 0000 0000 0000 0000 0000
00000070: 0000 0000 0000 0000 0000 0000 0000 0000
00000080: 0000 0000 0000 0000 0000 0000 0000 0000
00000090: 0000 0000 0000 0000 0000 0000 0000 0000
000000a0: 0000 0000 0000 0000 0000 0000 0000 0000
000000b0: 0000 0000 0000 0000 0000 0000 0000 0000
000000c0: 0000 803f 0000 803f 0000 803f 0000 803f
000000d0: 0000 803f 0000 803f 0000 803f 0000 803f
000000e0: 0000 0000 0000 0000 0000 0000 0000 0000
000000f0: 0000 0000 0000 0000 0000 0000 0000 0000
00000100: 0000 0000 0000 0000 0000 0000 0000 0000
00000110: 0000 0000 0000 0000 0000 0000 0000 0000
00000120: 0000 0000 0000 0000 0000 0000 0000 0000
00000130: 0000 0000 0000 0000 0000 0000 0000 0000
00000140: 0000 0000 0000 0000 0000 0000 0000 0000
00000150: 0000 0000 0000 0000 0000 0000 0000 0000
00000160: 0000 0000 0000 0000 0000 0000 0000 0000
00000170: 0000 0000 0000 0000 0000 0000 0000 0000
00000180: 0000 803f 0000 803f 0000 803f 0000 803f
00000190: 0000 803f 0000 803f 0000 803f 0000 803f
000001a0: 0000 0000 0000 0000 0000 0000 0000 0000
000001b0: 0000 0000 0000 0000 0000 0000 0000 0000
000001c0: 0000 0000 0000 0000 0000 0000 0000 0000
000001d0: 0000 0000 0000 0000 0000 0000 0000 0000
000001e0: 0000 0000 0000 0000 0000 0000 0000 0000
000001f0: 0000 0000 0000 0000 0000 0000 0000 0000
00000200: 0000 0000 0000 0000 0000 0000 0000 0000
00000210: 0000 0000 0000 0000 0000 0000 0000 0000
00000220: 0000 0000 0000 0000 0000 0000 0000 0000
00000230: 0000 0000 0000 0000 0000 0000 0000 0000
00000240: 0000 803f 0000 803f 0000 803f 0000 803f
00000250: 0000 803f 0000 803f 0000 803f 0000 803f
00000260: 0000 0000 0000 0000 0000 0000 0000 0000
00000270: 0000 0000 0000 0000 0000 0000 0000 0000
00000280: 0000 0000 0000 0000 0000 0000 0000 0000
00000290: 0000 0000 0000 0000 0000 0000 0000 0000
000002a0: 0000 0000 0000 0000 0000 0000 0000 0000
000002b0: 0000 0000 0000 0000 0000 0000 0000 0000
000002c0: 0000 0000 0000 0000 0000 0000 0000 0000
000002d0: 0000 0000 0000 0000 0000 0000 0000 0000
000002e0: 0000 0000 0000 0000 0000 0000 0000 0000
000002f0: 0000 0000 0000 0000 0000 0000 0000 0000
00000300: 0000 803f 0000 803f 0000 803f 0000 803f
00000310: 0000 803f 0000 803f 0000 803f 0000 803f
00000320: 0000 0000 0000 0000 0000 0000 0000 0000
00000330: 0000 0000 0000 0000 0000 0000 0000 0000
00000340: 0000 0000 0000 0000 0000 0000 0000 0000
00000350: 0000 0000 0000 0000 0000 0000 0000 0000
00000360: 0000 0000 0000 0000 0000 0000 0000 0000
00000370: 0000 0000 0000 0000 0000 0000 0000 0000
00000380: 0000 0000 0000 0000 0000 0000 0000 0000
00000390: 0000 0000 0000 0000 0000 0000 0000 0000
000003a0: 0000 0000 0000 0000 0000 0000 0000 0000
000003b0: 0000 0000 0000 0000 0000 0000 0000 0000
000003c0: 0000 803f 0000 803f 0000 803f 0000 803f
000003d0: 0000 803f 0000 803f 0000 803f 0000 803f
000003e0: 0000 0000 0000 0000 0000 0000 0000 0000
000003f0: 0000 0000 0000 0000 0000 0000 0000 0000

in_proj.weight f4 [48, 114]
0.0023816922 0.06806012 0.02770029 0.1486537 -0.14019357 0.14009033 0.007468436 -0.016983567
0.02488857 -0.07653919 -0.113600515 -0.07155049 0.035144698 0.11663155 -0.010054513 -0.018313542
-0.009847451 -0.15151927 0.08925448 -0.14404239 0.048511308 0.05053958 -0.032329876 0.1397809
-0.13986702 0.020174634 0.11939929 -0.10960715 0.06887997 -0.105990686 -0.12959738 -0.064996645
-0.100627325 -0.08747419 0.033258263 0.08362117 -0.09688955 -0.14876415 -0.09919101 0.12892593
0.056179114 0.12041042 -0.007931574 -0.14474572 0.1415757 -0.037246276 -0.11790155 -0.12158102
-0.09297548 0.024698922 -0.022605073 0.14715755 0.10298308 -0.057855897 0.09486739 -0.03515816
-0.14210615 -0.0049893744 0.04155874 0.017639447 -0.046889164 0.026604839 0.092506036 0.049141683
-0.1043218 -0.09078068 -0.013801711 -0.00051718095 -0.10707248 -0.06237949 0.049738646 -0.121880725
-0.026661735 0.13665608 0.089644976 0.042319197 -0.008495658 -0.1433145 -0.14847864 0.12190913
-0.04891877 -0.11175303 -0.04467578 0.07486499 0.08108804 0.017384965 -0.05574143 -0.029435096
0.015492914 -0.13796337 0.10064725 0.13253029 0.14204332 -0.08252663 0.023529995 0.06599276
-0.08042007 -0.010156265 0.08162585 0.00868508 0.016030122 0.027815655 0.14573966 -0.03963002
-0.08285678 0.08124049 -0.10654711 -0.029279696 -0.08232999 -0.043316793 0.117990464 0.04028263
0.0048565315 0.09049996 -0.028225021 -0.11727958 -0.07108244 -0.025373915 0.15186585 0.15102556
-0.020549355 0.0026626205 0.03164862 -0.12511086 0.058352698 -0.078882 0.12311198 -0.091152355
0.104653776 0.06123451 -0.0056774765 0.14177547 -0.017963793 -0.106536694 0.12729588 0.118942164
0.048528794 -0.10905793 0.092280254 -0.004806162 0.09630488 0.07363545 -0.11936523 0.0076755467
-0.029757868 -0.08497186 -0.018814482 -0.07381385 -0.12439342 0.09147577 -0.039117496 -0.063356265
-0.045159407 -0.06390805 -0.057080112 0.06697434 0.119160645 -0.039363313 -0.040773403 -0.13450068
0.046941563 -0.1400674 -0.08133061 -0.052585084 0.06913884 0.0990234 -0.043626957 -0.0585022
0.07575396 -0.043911457 0.063091815 -0.047762237 -0.047137048 -0.046204317 -0.015236378 -0.016727207
0.090343125 0.031981733 0.105077945 0.03982224 -0.022410367 -0.13530952 0.15040886 -0.11058576
-0.03947844 0.070622034 0.09681369 0.09941095 -0.0065033734 0.13991976 0.10355278 -0.035799302
-0.12714149 -0.090809576 0.02707663 0.072797105 0.15081994 0.006221252 0.050898045 0.14293984
-0.033416983 0.08127542 -0.028228363 0.004362256 0.11849195 0.030937701 0.111119196 -0.09378352
-0.048465572 0.040691618 0.0047644153 -0.094189815 -0.026223324 0.11547968 -0.09074726 -0.030509638
-0.10796882 -0.1030249 -0.11362688 -0.052057073 -0.08157961 -0.1563381 0.101394854 0.04678118
0.15184994 0.12608665 -0.070527315 0.018466828 -0.004517232 0.032954924 -0.06498847 0.010477457
-0.051265452 0.10669872 -0.07980679 0.007123183 -0.13061553 0.12349895 0.09144909 0.10574518
-0.102320924 -0.13645135 -0.049438402 0.093450315 0.08439394 0.10577738 -0.054723114 0.1149113
-0.112592325 0.1421478 -0.05432622 0.015808547 -0.09166019 0.08903226 0.057230525 -0.0354571
00000000: 2a16 1c3b 1b63 8b3d b8eb e23c ad38 183e
00000010: e78e 0fbe d773 0f3e c8b9 f43b 1f21 8bbc
00000020: 1de3 cb3c 94c0 9cbd 63a7 e8bd 1089 92bd
00000030: e3f3 0f3d 86dc ee3d afbb 24bc 4806 96bc
00000040: 3457 21bc de27 1bbe 0ecb b63d d97f 13be
00000050: cbb3 463d 9702 4f3d 556c 04bd b922 0f3e
00000060: 4d39 0fbe 4645 a53c 9d87 f43d b779 e0bd
00000070: f110 8d3d a511 d9bd 2db5 04be f61c 85bd
00000080: b315 cebd ab25 b3bd d139 083d 9341 ab3d
00000090: 076e c6bd a155 18be a824 cbbd 2905 043e
000000a0: 121c 663d bd99 f63d 6ff3 01bc 3938 14be
000000b0: 38f9 103e 8d8f 18bd 5e76 f1bd 78ff f8bd
000000c0: ee69 bebd 6555 ca3c 462e b9bc 78b0 163e
000000d0: cbe8 d23d 4efa 6cbd d649 c23d 0102 10bd
000000e0: 4684 11be e87d a3bb 7f39 2a3d 9a80 903c
000000f0: da0e 40bd 64f2 d93c ce73 bd3d ca48 493d
00000100: aba6 d5bd 39eb b9bd 9220 62bc 6d93 07ba
00000110: d148 dbbd a381 7fbd c0ba 4b3d 9a9c f9bd
00000120: b669 dabc 92ef 0b3e c997 b73d e556 2d3d
00000130: 5f31 0bbc 09c1 12be c90a 18be 7eab f93d
00000140: 0c5f 48bd c6de e4bd f3fd 36bd d152 993d
00000150: 7c11 a63d ea6a 8e3c 2051 64bd df21 f1bc
00000160: fed5 7d3c 4546 0dbe 2520 ce3d 05b6 073e
00000170: ce73 113e b903 a9bd fac1 c03c 3627 873d
00000180: 47b3 a4bd 7766 26bc 742b a73d de4b 0e3c
00000190: 9a51 833c a8dd e33c c73c 153e 1653 22bd
000001a0: d1b0 a9bd 6a61 a63d 5f35 dabd f9db efbc
000001b0: a09c a8bd f36c 31bd fca4 f13d 66ff 243d
000001c0: 8a23 9f3b 0b58 b93d 2938 e7bc 4730 f0bd
000001d0: ac93 91bd f5dc cfbc b982 1b3e 72a6 1a3e
000001e0: 1f57 a8bc 5c7f 2e3b fca1 013d 101d 00be
000001f0: 3d03 6f3d e38c a1bd 2222 fc3d 16ae babd
00000200: b854 d63d 0ad1 7a3d 200a babb 972d 113e
00000210: ce28 93bc e92f dabd da59 023e f397 f33d
00000220: 21c6 463d c459 dfbd 6efd bc3d 027d 9dbb
00000230: 7e3b c53d 2fce 963d c275 f4bd 2783 fb3b
00000240: c6c6 f3bc ba05 aebd d420 9abc b72b 97bd
00000250: fac1 febd a657 bb3d ab39 20bd eec0 81bd
00000260: 12f9 38bd 39e2 82bd d6cc 69bd d829 893d
00000270: 7f0a f43d 6d3b 21bd 0302 27bd 8cba 09be
00000280: cc45 403d d46d 0fbe aa90 a6bd 7563 57bd
00000290: aa98 8d3d c8cc ca3d 2eb2 32bd 01a0 6fbd
000002a0: e424 9b3d 80dc 33bd 4836 813d 56a2 43bd
000002b0: c712 41bd bd40 3dbd 00a2 79bc 7f07 89bc
000002c0: d105 b93d 47ff 023d 1b33 d73d a51c 233d
000002d0: f295 b7bc 948e 0abe c804 1a3e c97a e2bd
000002e0: 25b4 21bd 49a2 903d 4246 c63d f897 cb3d
000002f0: 401a d5bb 2047 0f3e 7b13 d43d 4aa2 12bd
00000300: 6131 02be 5ffa b9bd cfcf dd3c a616 953d
00000310: 8b70 1a3e a5db cb3b 787a 503d d25e 123e
00000320: 3fe0 08bd ba73 a63d 2b3f e7bc 41f1 8e3b
00000330: e8ab f23d 1071 fd3c 7692 e33d 9311 c0bd
00000340: d683 46bd 41ac 263d d01e 9c3b 97e6 c0bd
00000350: 4cd2 d6bc 9c80 ec3d b3d9 b9bd 59ef f9bc
00000360: c21e ddbd b8fe d2bd 36b5 e8bd cc39 55bd
00000370: 3613 a7bd 1817 20be 1ba8 cf3d 9f9d 3f3d
00000380: 8d7e 1b3e dc1c 013e a070 90bd bf47 973c
00000390: 4a05 94bb befb 063d ad18 85bd a4a9 2b3c
000003a0: b9fb 51bd dc84 da3d be71 a3bd 9769 e93b
000003b0: 14c0 05be 04ed fc3d a949 bb3d ee90 d83d
000003c0: a28d d1bd e7b9 0bbe ec7f 4abd e162 bf3d
000003d0: bbd6 ac3d d0a1 d83d 5825 60bd 9e56 eb3d
000003e0: ce96 e6bd 318f 113e 2c85 5ebd ed80 813c
000003f0: 56b8 bbbd 8c56 b63d 8e6a 6a3d 773b 11bd

in_proj.bias f4 [48]
-0.0003078013 -0.0029964624 0.0029636228 0.0029879017 6.631558e-05 0.002977059 0.0026772234 -0.0030031735
-0.002981263 -0.0029632053 0.002976201 -0.0029887613 -0.0030013362 0.0029877424 -0.002977099 0.0029795503
-0.00299693 0.002997213 0.0022588433 -0.0029126536 -0.0029436885 -0.0029962976 -0.0025879224 0.003003533
0.0029998804 0.001311528 0.0029754215 0.0029913906 0.0030022794 0.003003106 0.0029966326 0.0029881354
-0.0029774422 -0.0030006666 0.0029476332 0.0029995628 0.0030043283 0.0022388997 0.0028839372 -0.002975131
-0.0030015293 0.0029767766 0.0030045812 -0.0030027507 -0.002840461 0.0029564754 0.0029781784 -0.002992682
00000000: 6460 a1b9 4c60 44bb 5739 423b acd0 433b
00000010: e812 8b38 c31a 433b 5b74 2f3b e4d0 44bb
00000020: 4b61 43bb 5632 42bb 5e0c 433b 18df 43bb
00000030: 11b2 44bb 00ce 433b 6f1b 43bb 8f44 433b
00000040: 2468 44bb e46c 443b 1a09 143b 38e2 3ebb
00000050: e6ea 40bb 885d 44bb 229a 29bb ecd6 443b
00000060: a499 443b 94e7 ab3a 4aff 423b 350b 443b
00000070: e4c1 443b c2cf 443b 2763 443b 98d4 433b
00000080: 3121 43bb d5a6 44bb 142d 413b 5094 443b
00000090: 44e4 443b 81ba 123b 7000 3d3b 6afa 42bb
000000a0: 4eb5 44bb 0616 433b 82e8 443b ccc9 44bb
000000b0: 0727 3abb 6dc1 413b 8b2d 433b df20 44bb

cell.weight f4 [48, 48]
-0.037215766 0.00040794385 0.031261966 -0.015599975 0.030033404 0.046451416 0.02275932 0.032087453
0.043539554 0.046205644 -0.042464633 0.032933496 0.0053942846 0.042661693 -0.0024046092 0.043209657
0.00031150796 0.00077794684 0.014734838 -0.018080922 0.018038807 0.032823842 0.039422035 0.0006444188
-0.02288253 -0.0042777173 -0.0007957755 0.008312073 -0.02589127 -0.016173666 0.025101792 0.02643367
0.014076735 -0.009467528 0.008391567 0.01150832 -0.0003388569 -0.029742489 0.018680375 0.035954487
0.00080125657 0.011290399 -0.028619096 -0.0003623627 0.021864485 -0.035740778 0.028074952 0.018836543
-0.0014308554 0.016131878 0.005457826 -0.009193185 -0.037363302 0.0013634225 0.011097116 0.04309387
-0.04388291 0.0048768464 -0.028496621 -0.018924633 0.019003568 0.02907859 0.014137455 0.027148578
0.04660619 0.024370948 0.012441298 -0.0028903477 0.03537735 -0.00080715265 -0.041952427 0.039026033
-0.012523141 0.039500214 -0.0046424684 -0.030679278 -0.0061558634 0.023748115 0.027218727 -0.0063173943
-0.025477389 0.042626057 0.00801924 0.029498592 0.017326199 -0.003947309 -0.031976026 0.0459226
-0.029331017 -0.01234718 -9.320752e-05 0.027956197 0.036886636 -0.0079672625 0.01941074 0.004973923
-0.005736081 0.03596092 -0.016220044 -0.04330595 -0.0013237693 -0.03310532 0.042958163 0.015315354
0.026627138 0.0423046 0.012068693 0.03657918 0.005038306 -5.0291303e-05 0.03448437 0.044169735
0.045019764 0.038262684 -0.00078384194 -0.01463288 -0.004565554 0.004832565 0.010971866 -0.02265115
-0.0055989283 -0.0152341565 -0.015813867 0.031506985 0.020926742 0.020452255 -0.0129167475 0.039633676
0.00782849 -0.025406564 -0.04490103 -0.04587242 -0.0009011281 -0.004289279 -0.040204257 0.016813636
-0.0001415608 0.011732133 0.019265141 0.02015494 -0.015759341 0.04215221 0.019308189 0.010700693
-0.031140814 -0.024480572 0.0012377216 -0.0032587112 -0.04204456 -0.008011918 0.032865044 0.028924065
-0.015032789 0.04471206 0.008791097 0.008389146 0.044248257 -0.04002615 0.030709734 -0.016760144
0.015559888 -0.046900693 -0.020204728 -0.0007611519 0.009338352 0.02099455 0.016597886 -0.0033126245
-0.04647491 -0.015917163 0.0043078335 0.024072753 0.023060009 0.025752727 0.002180214 0.018316511
-0.007920576 0.0026402026 0.00076581666 -0.015188663 -0.036546543 -0.010639216 0.020553721 -0.01166798
0.019971868 0.014549389 0.0060650473 0.000749417 -0.018819511 -0.019594295 0.031667054 0.034256294
-0.01373761 -0.004672739 0.010663191 -0.0015388355 -0.040431328 0.043286156 -0.010711524 0.041389134
0.019197721 -0.026239412 -0.020405589 0.00040063937 0.04065559 -0.00079090276 0.0011878557 -0.0021806313
-0.020230975 0.011015748 0.022389267 -0.042270303 -0.0340949 0.034289386 -0.03348457 -0.018199032
0.01678272 -0.029697504 -0.00030014978 0.041256223 0.02740821 -0.0040359423 -0.03206441 0.028113088
-0.010642004 0.00076047005 -0.011833637 -0.026264967 0.038372602 -0.04041213 0.03810691 -0.035274513
0.012575743 0.028151294 -0.013625791 -0.005279666 0.00015456666 0.007645061 -0.011384881 0.04220899
0.026851121 0.04233614 0.035284333 0.021801217 0.012127336 -0.023330424 0.016865015 -0.02586715
0.024402961 0.016251268 -0.04395507 -0.003401703 0.007845139 -0.03593509 -0.011946711 0.031506106
00000000: 8f6f 18bd 4ce1 d539 8c0c 003d 0a97 7fbc
00000010: 9d08 f63c d743 3e3d c171 ba3c 226e 033d
00000020: 8856 323d 2142 3d3d 65ef 2dbd 46e5 063d
00000030: 8ac2 b03b 07be 2e3d a696 1dbb 9cfc 303d
00000040: e451 a339 21ef 4b3a 646a 713c 711e 94bc
00000050: 1fc6 933c 4b72 063d 0079 213d 37ee 283a
00000060: 2574 bbbc 182c 8cbb 979b 50ba 5c2f 083c
00000070: ee19 d4bc a37e 84bc 46a2 cd3c 6d8b d83c
00000080: 1ba2 663c b11d 1bbc c87c 093c 658d 3c3c
00000090: 9aa8 b1b9 85a6 f3bc 9607 993c 0345 133d
000000a0: 6b0b 523a 5efb 383c 9872 eabc 80fb bdb9
000000b0: 261d b33c ec64 12bd 71fd e53c 184f 9a3c
000000c0: 8a8b bbba 0027 843c 90d7 b23b 039f 16bc
000000d0: 430a 19bd deb4 b23a aed0 353c 3383 303d
000000e0: 91be 33bd f4cd 9f3b bf71 e9bc d507 9bbc
000000f0: 5fad 9b3c 3936 ee3c c9a0 673c b266 de3c
00000100: 22e6 3e3d 95a5 c73c 96d6 4b3c fd6b 3dbb
00000110: d7e7 103d 1997 53ba 4fd6 2bbd c3d9 1f3d
00000120: dc2d 4dbc faca 213d d91f 98bb 1c53 fbbc
00000130: 20b7 c9bb 688b c23c cff9 de3c 2502 cfbb
00000140: f5b5 d0bc a998 2e3d 2163 033c 08a7 f13c
00000150: acef 8d3c 6e58 81bb 4bf9 02bd 5619 3c3d
00000160: 9a47 f0bc d44b 4abc 6878 c3b8 6504 e53c
00000170: 7116 173d 1f89 02bc 4603 9f3c 4afc a23b
00000180: bcf5 bbbb c24b 133d e6df 84bc 9461 31bd
00000190: 5482 adba 7299 07bd e6f4 2f3d 40ed 7a3c
000001a0: 2821 da3c 9747 2d3d c4bb 453c 0dd4 153d
000001b0: 6018 a53b e0ef 52b8 7c3f 0d3d 53eb 343d
000001c0: a566 383d 55b9 1c3d be7a 4dba bfbe 6fbc
000001d0: a59a 95bb 7e5a 9e3b 57c3 333c e88e b9bc
000001e0: 3777 b7bb af98 79bc 158c 81bc 780d 013d
000001f0: 8f6e ab3c 7d8b a73c c4a0 53bc ec56 223d
00000200: 1143 003c 6d21 d0bc 24ea 37bd b8e4 3bbd
00000210: af39 6cba 158d 8cbb 38ad 24bd c0bc 893c
00000220: f06f 14b9 2238 403c eed1 9d3c f91b a53c
00000230: bc19 81bc cca7 2c3d 352c 9e3c f651 2f3c
00000240: 051b ffbc 7b8b c8bc 0c3b a23a 1a90 55bb
00000250: eb36 2cbd 6b44 03bc 7f9d 063d 29f2 ec3c
00000260: 164c 76bc fe23 373d 8908 103c a172 093c
00000270: a93d 353d 76f2 23bd fb92 fb3c 924c 89bc
00000280: e7ee 7e3c f11a 40bd 6384 a5bc 0a88 47ba
00000290: e3ff 183c c3fc ab3c 4af8 873c 9e18 59bb
000002a0: 7a5c 3ebd b664 82bc ba28 8d3b 3934 c53c
000002b0: 58e8 bc3c 62f7 d23c ece1 0e3b 820c 963c
000002c0: 4ec5 01bc 4007 2d3b 16c1 483a dfd9 78bc
000002d0: d4b1 15bd 1b50 2ebc 4760 a83c 0e2b 3fbc
000002e0: 0b9c a33c 8f60 6e3c 4ebd c63b 8674 443a
000002f0: 602b 9abc 3784 a0bc 50b5 013d 5450 0c3d
00000300: b613 61bc c71d 99bb aab4 2e3c c0b2 c9ba
00000310: 529b 25bd d34c 313d 637f 2fbc a787 293d
00000320: 8a44 9d3c 09f4 d6bc 9f29 a7bc e80c d239
00000330: 7a86 263d 9654 4fba d3b1 9b3a ece8 0ebb
00000340: 6ebb a5bc 657b 343c b269 b73c a023 2dbd
00000350: 18a7 0bbd 0773 0c3d 1e27 09bd 2316 95bc
00000360: ea7b 893c 2e48 f3bc 6c5d 9db9 49fc 283d
00000370: 2f87 e03c f03f 84bb f955 03bd 6b4d e63c
00000380: cd5b 2ebc 485a 473a dfe1 41bc a129 d7bc
00000390: 972c 1d3d 3187 25bd fe15 1c3d 027c 10bd
000003a0: 7d0a 4e3c 8b9d e63c b63e 5fbc 0c01 adbb
000003b0: 2c13 2239 6b83 fa3b a787 3abc 55e3 2c3d
000003c0: e2f6 db3c a968 2d3d 4e86 103d 7798 b23c
000003d0: bcb1 463c 721f bfbc 8028 8a3c 58e7 d3bc
000003e0: b8e8 c73c 6121 853c 3b0a 34bd 1bef 5ebb
000003f0: e688 003c ac30 13bd 23bc 43bc 8c0c 013d

cell.bias f4 [48]
-0.0030022678 0.0028376328 0.0028364332 0.002716883 0.0030019614 0.002929715 0.0026437566 0.0005340731
-0.002956673 0.0029887292 -0.0029630875 -0.0024922555 0.0028652837 0.002675763 0.002960081 0.002953943
-0.0014118488 0.0028852045 0.00022890739 -0.0029505736 -0.0028068735 -0.0026286957 0.0029717716 0.002974364
0.002529844 0.0023461168 0.0025460776 -0.0027840114 -0.0024651806 0.0020084698 -0.0024899486 -0.002967042
-0.0029356391 -0.0027865937 0.0022682906 0.0029798613 -0.002957954 0.0030006762 0.0028253037 0.0029334847
-0.0028904984 -0.0028547067 0.002734857 0.0029261042 -0.0013808167 0.002595252 0.002891598 0.0028550795
00000000: b2c1 44bb 94f7 393b 74e3 393b bc0d 323b
00000010: 8ebc 443b 7600 403b e042 2d3b 0a01 0c3a
00000020: bec4 41bb 8ede 433b 5c30 42bb 1c55 23bb
00000030: 7cc7 3b3b db5b 2f3b ebfd 413b f196 413b
00000040: c90d b9ba b315 3d3b dc06 7039 695e 41bb
00000050: 86f3 37bb 3246 2cbb 0ec2 423b 8ced 423b
00000060: bdcb 253b 4fc1 193b 18dc 263b f673 36bb
00000070: de8e 21bb 88a0 033b 682e 23bb b472 42bb
00000080: da63 40bb 499f 36bb 9aa7 143b c749 433b
00000090: 3cda 41bb fea6 443b bb28 393b b53f 403b
000000a0: 846e 3dbb 0816 3bbb 493b 333b e2c3 3f3b
000000b0: 85fc b4ba 1a15 2a3b f780 3d3b 491c 3b3b
