artifacts/dcenn_encoder.pt (torch, 43547 bytes, 5 tensors)

mask f4 [48, 48]
1.0 1.0 1.0 1.0 1.0 1.0 1.0 1.0
0.0 0.0 0.0 0.0 0.0 0.0 0.0 0.0
0.0 0.0 0.0 0.0 0.0 0.0 0.0 0.0
0.0 0.0 0.0 0.0 0.0 0.0 0.0 0.0
0.0 0.0 0.0 0.0 0.0 0.0 0.0 0.0
0.0 0.0 0.0 0.0 0.0 0.0 0.0 0.0
1.0 1.0 1.0 1.0 1.0 1.0 1.0 1.0
0.0 0.0 0.0 0.0 0.0 0.0 0.0 0.0
0.0 0.0 0.0 0.0 0.0 0.0 0.0 0.0
0.0 0.0 0.0 0.0 0.0 0.0 0.0 0.0
0.0 0.0 0.0 0.0 0.0 0.0 0.0 0.0
0.0 0.0 0.0 0.0 0.0 0.0 0.0 0.0
1.0 1.0 1.0 1.0 1.0 1.0 1.0 1.0
0.0 0.0 0.0 0.0 0.0 0.0 0.0 0.0
0.0 0.0 0.0 0.0 0.0 0.0 0.0 0.0
0.0 0.0 0.0 0.0 0.0 0.0 0.0 0.0
0.0 0.0 0.0 0.0 0.0 0.0 0.0 0.0
0.0 0.0 0.0 0.0 0.0 0.0 0.0 0.0
1.0 1.0 1.0 1.0 1.0 1.0 1.0 1.0
0.0 0.0 0.0 0.0 0.0 0.0 0.0 0.0
0.0 0.0 0.0 0.0 0.0 0.0 0.0 0.0
0.0 0.0 0.0 0.0 0.0 0.0 0.0 0.0
0.0 0.0 0.0 0.0 0.0 0.0 0.0 0.0
0.0 0.0 0.0 0.0 0.0 0.0 0.0 0.0
1.0 1.0 1.0 1.0 1.0 1.0 1.0 1.0
0.0 0.0 0.0 0.0 0.0 0.0 0.0 0.0
0.0 0.0 0.0 0.0 0.0 0.0 0.0 0.0
0.0 0.0 0.0 0.0 0.0 0.0 0.0 0.0
0.0 0.0 0.0 0.0 0.0 0.0 0.0 0.0
0.0 0.0 0.0 0.0 0.0 0.0 0.0 0.0
1.0 1.0 1.0 1.0 1.0 1.0 1.0 1.0
0.0 0.0 0.0 0.0 0.0 0.0 0.0 0.0
00000000: 0000 803f 0000 803f 0000 803f 0000 803f
00000010: 0000 803f 0000 803f 0000 803f 0000 803f
00000020: 0000 0000 0000 0000 0000 0000 0000 0000
00000030: 0000 0000 0000 0000 0000 0000 0000 0000
00000040: 0000 0000 0000 0000 0000 0000 0000 0000
00000050: 0000 0000 0000 0000 0000 0000 0000 0000
00000060: 0000 0000 0000 0000 0000 0000 0000 0000
00000070: 0000 0000 0000 0000 0000 0000 0000 0000
00000080: 0000 0000 0000 0000 0000 0000 0000 0000
00000090: 0000 0000 0000 0000 0000 0000 0000 0000
000000a0: 0000 0000 0000 0000 0000 0000 0000 0000
000000b0: 0000 0000 0000 0000 0000 0000 0000 0000
000000c0: 0000 803f 0000 803f 0000 803f 0000 803f
000000d0: 0000 803f 0000 803f 0000 803f 0000 803f
000000e0: 0000 0000 0000 0000 0000 0000 0000 0000
000000f0: 0000 0000 0000 0000 0000 0000 0000 0000
00000100: 0000 0000 0000 0000 0000 0000 0000 0000
00000110: 0000 0000 0000 0000 0000 0000 0000 0000
00000120: 0000 0000 0000 0000 0000 0000 0000 0000
00000130: 0000 0000 0000 0000 0000 0000 0000 0000
00000140: 0000 0000 0000 0000 0000 0000 0000 0000
00000150: 0000 0000 0000 0000 0000 0000 0000 0000
00000160: 0000 0000 0000 0000 0000 0000 0000 0000
00000170: 0000 0000 0000 0000 0000 0000 0000 0000
00000180: 0000 803f 0000 803f 0000 803f 0000 803f
00000190: 0000 803f 0000 803f 0000 803f 0000 803f
000001a0: 0000 0000 0000 0000 0000 0000 0000 0000
000001b0: 0000 0000 0000 0000 0000 0000 0000 0000
000001c0: 0000 0000 0000 0000 0000 0000 0000 0000
000001d0: 0000 0000 0000 0000 0000 0000 0000 0000
000001e0: 0000 0000 0000 0000 0000 0000 0000 0000
000001f0: 0000 0000 0000 0000 0000 0000 0000 0000
00000200: 0000 0000 0000 0000 0000 0000 0000 0000
00000210: 0000 0000 0000 0000 0000 0000 0000 0000
00000220: 0000 0000 0000 0000 0000 0000 0000 0000
00000230: 0000 0000 0000 0000 0000 0000 0000 0000
00000240: 0000 803f 0000 803f 0000 803f 0000 803f
00000250: 0000 803f 0000 803f 0000 803f 0000 803f
00000260: 0000 0000 0000 0000 0000 0000 0000 0000
00000270: 0000 0000 0000 0000 0000 0000 0000 0000
00000280: 0000 0000 0000 0000 0000 0000 0000 0000
00000290: 0000 0000 0000 0000 0000 0000 0000 0000
000002a0: 0000 0000 0000 0000 0000 0000 0000 0000
000002b0: 0000 0000 0000 0000 0000 0000 0000 0000
000002c0: 0000 0000 0000 0000 0000 0000 0000 0000
000002d0: 0000 0000 0000 0000 0000 0000 0000 0000
000002e0: 0000 0000 0000 0000 0000 0000 0000 0000
000002f0: 0000 0000 0000 0000 0000 0000 0000 0000
00000300: 0000 803f 0000 803f 0000 803f 0000 803f
00000310: 0000 803f 0000 803f 0000 803f 0000 803f
00000320: 0000 0000 0000 0000 0000 0000 0000 0000
00000330: 0000 0000 0000 0000 0000 0000 0000 0000
00000340: 0000 0000 0000 0000 0000 0000 0000 0000
00000350: 0000 0000 0000 0000 0000 0000 0000 0000
00000360: 0000 0000 0000 0000 0000 0000 0000 0000
00000370: 0000 0000 0000 0000 0000 0000 0000 0000
00000380: 0000 0000 0000 0000 0000 0000 0000 0000
00000390: 0000 0000 0000 0000 0000 0000 0000 0000
000003a0: 0000 0000 0000 0000 0000 0000 0000 0000
000003b0: 0000 0000 0000 0000 0000 0000 0000 0000
000003c0: 0000 803f 0000 803f 0000 803f 0000 803f
000003d0: 0000 803f 0000 803f 0000 803f 0000 803f
000003e0: 0000 0000 0000 0000 0000 0000 0000 0000
000003f0: 0000 0000 0000 0000 0000 0000 0000 0000

in_proj.weight f4 [48, 114]
-0.09070419 0.01328464 0.02405629 -0.12078009 0.05468043 0.03345621 -0.066528976 0.15057862
0.09975782 0.06346155 0.057117574 -0.09343554 0.14279534 -0.14069735 -0.003423734 0.10987789
-0.039878663 -0.011224242 -0.13048469 -0.011482551 0.036813192 0.12528531 0.06976587 0.016494581
0.024631118 0.13264027 -0.0810337 0.11362294 0.113750756 0.14224283 -0.15006201 -0.046283357
0.12964936 0.09530503 -0.12536982 -0.000481145 0.12224664 0.10134232 0.12717472 0.053328294
0.13069618 0.056011595 -0.06508324 -0.14899479 -0.11640046 0.12749915 0.13332707 -0.08383775
0.1541284 -0.04707322 -0.10281045 0.016304793 0.14668451 0.14713325 -0.009476757 -0.06974006
-0.004713513 0.07849463 0.013014888 0.1292116 0.014442477 -0.023172397 -0.09161456 -0.079902336
-0.13490297 0.035247255 -0.11100715 -0.03823453 -0.082070015 -0.058402695 0.018519668 -0.03445536
0.0040699355 0.044351872 -0.012466788 -0.11559702 0.037655808 0.021215437 -0.110534325 -0.07553958
-0.048392303 0.1284484 -0.13380347 0.03919784 -0.13622501 -0.09073168 -0.10937958 0.15644571
-0.12036884 0.04530679 0.09027952 -0.092140675 0.071397886 0.03640566 -0.11525279 -0.12543139
0.024054857 -0.13278325 0.050799523 -0.018341495 -0.12569882 0.13012838 -0.11506745 -0.08421521
-0.08581512 0.000774923 -0.050964057 -0.03570891 -0.1509908 -0.0649578 -0.027745966 -0.02472631
-0.08672819 0.113975234 -0.12978524 -0.009114791 0.009469911 0.10942618 -0.10118799 -0.13932933
0.062215935 -0.022859357 0.06625894 -0.10831552 0.060838692 -0.08793546 0.022446562 0.070256494
-0.009916822 0.13483714 0.02127388 -0.014998812 0.13330826 0.044824854 -0.09691101 -0.15454347
0.06786987 -0.024521226 0.056133386 -0.1507565 0.046163887 0.029863868 -0.11810005 0.040156387
0.06705037 -0.050477374 0.027768113 -0.077798866 0.13791843 -0.082475565 0.09941442 -0.13191491
0.0608647 0.14309567 0.055044778 -0.1267657 0.07535579 0.14962298 -0.036258068 0.1282559
-0.076292954 -0.07425192 0.12805758 -0.13228564 0.13426486 -0.0871267 0.057449546 0.1122734
0.11499783 -0.13962391 -0.11494672 0.10706134 -0.09242499 -0.0075206007 0.14653519 0.12388017
0.08433245 0.04347408 -0.10068285 -0.05767775 -0.0059476504 0.10661515 -0.013542524 -0.0087954225
0.10161006 0.010759702 0.09612719 0.04300719 0.10773249 0.07632236 0.0320989 -0.056763463
-0.10061401 0.096105576 -0.017996818 0.034387477 -0.14971256 -0.07810681 -0.030438587 0.015084097
-0.09368425 -0.027702037 -0.06881296 -0.13503991 0.021039525 -0.1446252 0.049601957 -0.11523326
-0.14672337 0.0011038905 -0.10424859 -0.064503804 -0.019997694 -0.035182457 -0.0001054391 0.07530209
0.07718541 -0.025037572 0.05332277 -0.078030914 0.09281949 -0.016116293 0.09937921 0.13798872
-0.14919153 -0.051577527 0.12275615 -0.09176472 0.0072044996 -0.04941484 0.08852303 -0.12733272
-0.025481543 0.13627125 -0.15222847 -0.06268797 0.0958049 -0.12737218 -0.12074489 -0.035662644
0.07712918 0.044063315 -0.10826307 0.12999007 -0.0067813215 -0.047761332 -0.09314468 0.02298887
-0.017953835 0.00403509 0.10015718 0.13328217 0.08542347 -0.13245581 -0.03177646 0.10535393
00000000: 1ec3 b9bd d2a7 593c b211 c53c 8d5b f7bd
00000010: 96f8 5f3d 6109 093d 5840 88bd 4831 1a3e
00000020: d44d cc3d 21f8 813d 1ef4 693d 225b bfbd
00000030: f138 123e f712 10be ba60 60bb a907 e13d
00000040: cf57 23bd e2e5 37bc c79d 05be 4f21 3cbc
00000050: 6ec9 163d cb4a 003e 69e1 8e3d a51f 873c
00000060: 33c7 c93c dad2 073e fff4 a5bd 25b3 e83d
00000070: 28f6 e83d 1ba8 113e dba9 19be 9e93 3dbd
00000080: cdc2 043e 492f c33d f260 00be 3042 fcb9
00000090: 725c fa3d 908c cf3d 173a 023e c56e 5a3d
000000a0: 38d5 053e 6a6c 653d 5d4a 85bd 1792 18be
000000b0: 5d63 eebd 238f 023e e486 083e 20b3 abbd
000000c0: d6d3 1d3e d9cf 40bd 498e d2bd a191 853c
000000d0: 7734 163e 19aa 163e 6644 1bbc e0d3 8ebd
000000e0: d073 9abb cbc1 a03d 663c 553c 0c50 043e
000000f0: 24a0 6c3c 0ad4 bdbc 6aa0 bbbd d6a3 a3bd
00000100: 0124 0abe 6d5f 103d b757 e3bd cf9b 1cbd
00000110: 5314 a8bd aa37 6fbd 8fb6 973c 1021 0dbd
00000120: 185d 853b 4faa 353d 8041 4cbc 21be ecbd
00000130: fa3c 1a3d ffcb ad3c d25f e2bd 7fb4 9abd
00000140: 0237 46bd fa87 033e c703 09be ea8d 203d
00000150: 927e 0bbe 88d1 b9bd 6702 e0bd 4e33 203e
00000160: f083 f6bd 9d93 393d 78e4 b83d 40b4 bcbd
00000170: 0e39 923d 1a1e 153d a809 ecbd 1671 00be
00000180: b10e c53c 55f8 07be 2913 503d e740 96bc
00000190: 31b7 00be 6040 053e 7ca8 ebbd 0679 acbd
000001a0: d6bf afbd 3424 4b3a b0bf 50bd 8243 12bd
000001b0: 559d 1abe 9808 85bd 824b e3bc d58e cabc
000001c0: 8d9e b1bd d96b e93d 6ce6 04be 3456 15bc
000001d0: b027 1b3c d51a e03d a63b cfbd 59ac 0ebe
000001e0: 23d6 7e3d 8c43 bbbc c4b2 873d 87d4 ddbd
000001f0: fe31 793d 8217 b4bd dae1 b73c a3e2 8f3d
00000200: 2b7a 22bc bf12 0a3e 8f46 ae3c 94bd 75bc
00000210: f681 083e 449a 373d 4879 c6bd a540 1ebe
00000220: 5cff 8a3d bde0 c8bc 1fec 653d e95f 1abe
00000230: 5816 3d3d 12a5 f43c 70de f1bd 067b 243d
00000240: b451 893d 5dc1 4ebd f479 e33c 0355 9fbd
00000250: 7d3a 0d3e f3e8 a8bd ca99 cb3d b414 07be
00000260: 434d 793d ac87 123e a276 613d dece 01be
00000270: 2354 9a3d c436 193e 5783 14bd 8455 033e
00000280: 7b3f 9cbd 6411 98bd 8721 033e e375 07be
00000290: ba7c 093e 7c6f b2bd 3750 6b3d 99ef e53d
000002a0: fb83 eb3d 92f9 0ebe 3069 ebbd fa42 db3d
000002b0: 5049 bdbd 5f6f f6bb 520d 163e e3b4 fd3d
000002c0: 7eb6 ac3d e011 323d cf32 cebd 813f 6cbd
000002d0: 82e4 c2bb 0b59 da3d 76e1 5dbc ad1a 10bc
000002e0: ef18 d03d 7649 303c 55de c43d 4f28 303d
000002f0: daa2 dc3d e64e 9c3d 237a 033d ce80 68bd
00000300: b80e cebd 00d3 c43d 106e 93bc e2d9 0c3d
00000310: 404e 19be 77f6 9fbd 585a f9bc 4a23 773c
00000320: 87dd bfbd 62ef e2bc cfed 8cbd e747 0abe
00000330: 155b ac3c a118 14be 6c2b 4b3d 6aff ebbd
00000340: a73e 16be 6bb0 903a 4980 d5bd 921a 84bd
00000350: 34d2 a3bc 7b1b 10bd 301f ddb8 fb37 9a3d
00000360: 6213 9e3d 981b cdbc fa68 5a3d acce 9fbd
00000370: 2518 be3d 5106 84bc 5487 cb3d ea4c 0d3e
00000380: aac5 18be f542 53bd 9467 fb3d 24ef bbbd
00000390: b913 ec3b 3767 4abd 904b b53d 8263 02be
000003a0: abbe d0bc b18a 0b3e c8e1 1bbe 8d62 80bd
000003b0: 5c35 c43d da6d 02be 1949 f7bd fe12 12bd
000003c0: e7f5 9d3d bc7b 343d 07b9 ddbd 1e1c 053e
000003d0: d935 debb 63a1 43bd a3c2 bebd 2853 bc3c
000003e0: ec13 93bc ca38 843b 351f cd3d 1f7b 083e
000003f0: 80f2 ae3d 7fa2 07be 0928 02bd cdc3 d73d

in_proj.bias f4 [48]
0.0029913464 0.0029888158 0.003001892 -0.0029933616 0.0030030357 -0.0029926803 0.002999125 0.0029836255
-0.0029756557 0.002996868 -0.0030019814 0.0029967888 -0.0030022867 0.0029998054 0.0029920964 -0.0029498
0.002997163 0.00300301 0.0030009924 0.0029843254 -0.0027020606 0.0030040666 0.0029960084 -0.0029790057
0.0029971902 0.0024447865 -0.0029960673 -0.0029840842 0.002942034 -0.0029672962 -0.0030014203 0.0030034264
0.002990639 -0.0029756734 0.0029550004 0.0029942917 -0.0012502337 -0.0030020569 0.002974067 -0.0029951218
-0.0030041423 -0.0030027647 0.0029412892 -0.0029249385 -0.0029773836 -0.0029553203 0.003001729 0.0030015581
00000000: 770a 443b 02e0 433b 64bb 443b 462c 44bb
00000010: 94ce 443b d820 44bb f88c 443b ee88 433b
00000020: 3803 43bb 1a67 443b e4bc 44bb c665 443b
00000030: 03c2 44bb 6298 443b 0c17 443b 6f51 41bb
00000040: 0d6c 443b 26ce 443b 4cac 443b ac94 433b
00000050: 0e15 31bb e0df 443b ae58 443b 6c3b 43bb
00000060: 826c 443b b638 203b ab59 44bb a090 43bb
00000070: 24cf 403b f876 42bb 7ab3 44bb 22d5 443b
00000080: 99fe 433b 8403 43bb aea8 413b e13b 443b
00000090: e2de a3ba 28be 44bb 91e8 423b ce49 44bb
000000a0: 25e1 44bb 08ca 44bb a5c2 403b 53b0 3fbb
000000b0: 3520 43bb 0cae 41bb a8b8 443b cab5 443b

cell.weight f4 [48, 48]
0.02522203 -0.0039920583 -0.0029198087 0.04483717 -0.043644924 0.018274961 -0.00083709427 0.0075226035
-0.00023872661 0.000121175195 -0.04402775 6.888597e-05 -0.04641708 0.0077355574 -0.043765772 0.0012909161
5.3314754e-05 -0.026828382 -0.024663365 0.015517763 -0.03340054 0.043289464 -0.04565091 0.022715613
-0.031085659 0.03459789 0.030568378 0.026807597 -0.015452672 0.00078895036 0.0021164033 -0.021512764
0.01955939 0.032956578 0.007749256 -0.031983785 0.015681293 -0.021169417 0.00015362707 0.0020575053
-0.0237041 0.013685728 -0.006954492 0.036387254 0.028743962 0.007863733 -0.005955865 0.0030716427
-0.009297863 0.05013635 0.018110776 0.018658906 -0.012367408 -0.023416797 0.041863043 0.03602206
-0.004321517 0.0048264274 0.020051276 -0.041000247 0.02263587 -0.034595024 0.0055204704 -0.02004385
-0.029596785 -0.0036834986 -0.042190872 0.04546494 0.016407639 0.020653049 -0.0007972545 0.010215054
-0.040390737 -0.00060764176 -0.035304487 -0.041301053 7.685198e-05 0.00563933 -0.035702612 0.029625114
-5.8796606e-05 -0.02211004 -0.019203592 0.011028381 -0.008879387 -0.031289797 0.025883805 0.021275109
0.046571176 -0.030799711 0.029800279 -0.007127526 0.007294698 0.028663876 -0.04111998 -0.0017512639
0.017994976 0.04862598 0.04478825 -0.009792613 0.009911133 0.024460154 -0.033458915 -0.0068885973
-0.029470714 -0.029919421 -0.04582258 -0.027966008 -0.0007847552 0.015866933 0.03513528 -0.03739694
0.031593997 -0.018715376 0.0005633375 0.025737919 -0.00016600615 -0.032809425 -0.03845859 0.046623107
0.0424859 -0.042544264 0.015585507 -0.026055116 0.013584178 0.0067988476 -0.022795312 0.014729442
-0.0026864177 0.045081086 -0.041881375 0.011895636 -0.04698938 -0.03875775 -0.03839453 -0.008858014
-0.045651346 -0.008374507 -0.0074184784 -0.012832262 -0.00078475755 0.011316478 0.0019939067 0.006404211
0.037300467 0.0070729787 0.026272532 0.045466393 0.045750372 -0.019662112 -0.028259952 -0.047199428
0.014550306 -0.00695994 -0.04598565 0.0070843743 -0.040732067 0.012770513 -0.0015359455 -0.018358389
-0.03717987 0.03671024 0.03226154 -0.0087691555 -0.012095843 -0.033719435 -0.036619745 0.0066179982
0.03914442 -0.043068603 -0.038298897 -0.03634276 -0.043467626 -0.03220266 0.029136568 -0.0024921354
-0.012121626 0.00063405314 -0.016595691 -0.019660825 5.6953693e-05 0.028506055 0.04505654 -0.009418013
0.01812889 0.04214165 0.021212716 -0.043524556 -0.0303456 0.02315974 -0.021285139 0.020099703
0.016498094 -0.030305408 -0.019485358 0.04335822 0.013326151 0.0016285031 -0.01948004 -0.05009838
0.0004312963 0.011495613 -0.046502594 0.022117384 0.037819657 -0.042932793 0.035692796 -0.014668059
-0.016889816 -0.00017597631 -0.004584812 0.000653937 -0.010623405 0.034262214 0.039521012 0.031327467
0.019567285 -0.013538399 -0.046753876 -0.030384846 0.041092485 -0.046360683 -0.016919889 -0.031347584
-0.012782297 0.026631422 0.015279036 -0.03759142 -0.03947673 -0.0053211832 0.034412168 -0.03289197
-0.023641761 0.01651136 -0.03696105 0.00085799233 0.037239388 0.027297696 0.0051702484 0.019982934
-0.033722606 0.038637456 0.04820569 0.01739464 0.020322304 -0.0325184 -0.048580207 -0.037354223
0.009253772 -0.0014637068 -0.025015216 0.00980587 -0.010070372 0.011211201 -0.020672167 -0.044962417
00000000: 6e9e ce3c d0cf 82bb 435a 3fbb 2ea7 373d
00000010: 05c5 32bd 5fb5 953c 7270 5bba 2c80 f63b
00000020: b052 7ab9 701f fe38 7156 34bd e076 9038
00000030: d61f 3ebd 8f7a fd3b bd43 33bd f533 a93a
00000040: 489e 5f38 32c7 dbbc d30a cabc 373e 7e3c
00000050: 01cf 08bd 4b50 313d 73fc 3abd 1816 ba3c
00000060: 5aa7 febc 84b6 0d3d 896a fa3c 9b9b db3c
00000070: 342d 7dbc 90d1 4e3a 5bb3 0a3b 893b b0bc
00000080: 043b a03c 7afd 063d 79ed fd3b 6e01 03bd
00000090: 0e76 803c 7c6b adbc f416 2139 36d7 063b
000000a0: 1a2f c2bc 1b3a 603c 82e2 e3bb cd0a 153d
000000b0: 7578 eb3c e3d6 003c 6b29 c3bb 9d4d 493b
000000c0: 1056 18bc c65b 4d3d 0d5d 943c 90da 983c
000000d0: aba0 4abc 95d4 bfbc 9578 2b3d de8b 133d
000000e0: 839b 8dbb 0227 9e3b 9342 a43c e0ef 27bd
000000f0: dc6e b93c 83b3 0dbd 10e5 b43b 0033 a4bc
00000100: f574 f2bc da66 71bb 56d0 2cbd 7239 3a3d
00000110: 5069 863c 9530 a93c d8fe 50ba 0b5d 273c
00000120: c270 25bd 264a 1fba 709b 10bd 4b2b 29bd
00000130: 982b a138 21ca b83b e73c 12bd 5eb0 f23c
00000140: 609c 76b8 1d20 b5bc da50 9dbc 62b0 343c
00000150: d97a 11bc bb29 00bd 460a d43c 2349 ae3c
00000160: 6bc1 3e3d ad4f fcbc b71f f43c 068e e9bb
00000170: 5d08 ef3b 81d0 ea3c 6d6d 28bd aa8a e5ba
00000180: 336a 933c 092c 473d e273 373d 3271 20bc
00000190: 4e62 223c a960 c83c 370c 09bd beb9 e1bb
000001a0: 916c f1bc 9319 f5bc 75b0 3bbd f818 e5bc
000001b0: 08b8 4dba 5ffb 813c 03ea 0f3d 892d 19bd
000001c0: b568 013d fd50 99bc f1ac 133a 54d8 d23c
000001d0: f011 2eb9 2d63 06bd c186 1dbd dff7 3e3d
000001e0: b205 2e3d e542 2ebd 5b5a 7f3c 8a71 d5bc
000001f0: 2c90 5e3c dec8 de3b 3cbd babc c253 713c
00000200: 9c0e 30bb f2a6 383d ce8b 2bbd eae5 423c
00000210: f077 40bd 72c0 1ebd 9543 1dbd 3421 11bc
00000220: e8fc 3abd 3a35 09bc b516 f3bb 683e 52bc
00000230: 30b8 4dba c068 393c 34ac 023b 6ada d13b
00000240: 60c8 183d 72c4 e73b 7e39 d73c f83a 3a3d
00000250: be64 3b3d 7012 a1bc 6a81 e7bc 3054 41bd
00000260: 6864 6e3c 3510 e4bb 735b 3cbd 0a24 e83b
00000270: abd6 26bd 6a3b 513c c751 c9ba 5564 96bc
00000280: eb49 18bd 7a5d 163d ad24 043d 81ac 0fbc
00000290: a52d 46bc 641d 0abd 96fe 15bd cbdb d83b
000002a0: e655 203d b468 30bd 4edf 1cbd 25dc 14bd
000002b0: 1c0b 32bd f0e6 03bd d0af ee3c 1853 23bb
000002c0: c999 46bc 9636 263a b0f3 87bc bd0f a1bc
000002d0: 90e1 6e38 8885 e93c 358d 383d 024e 1abc
000002e0: 0a83 943c b99c 2c3d 4ac6 ad3c ce46 32bd
000002f0: 5697 f8bc 7fb9 bd3c 2c5e aebc 22a8 a43c
00000300: 0327 873c 0c43 f8bc c29f 9fbc 6498 313d
00000310: ee55 5a3c 7f73 d53a 9b94 9fbc f533 4dbd
00000320: 9c1f e239 1858 3c3c 8179 3ebd 842f b53c
00000330: c9e8 1a3d 4cda 2fbd 9c32 123d 4c52 70bc
00000340: 835c 8abc 4886 38b9 313c 96bb f86c 2b3a
00000350: ca0d 2ebc 8956 0c3d c9e0 213d 3b51 003d
00000360: 924b a03c 29d0 5dbc fe80 3fbd a4e9 f8bc
00000370: 9850 283d b3e4 3dbd 949b 8abc 5366 00bd
00000380: d76c 51bc 242a da3c ec54 7a3c 76f9 19bd
00000390: 5ab2 21bd 525d aebb c6f3 0c3d bbb9 06bd
000003a0: 5eac c1bc d542 873c 7864 17bd e4ea 603a
000003b0: 5488 183d 6b9f df3c 306b a93b 40b3 a33c
000003c0: b720 0abd 4f42 1e3d 5473 453d 347f 8e3c
000003d0: f67a a63c 0432 05bd 0afc 46bd be00 19bd
000003e0: 229d 173c dad9 bfba b6ec ccbc cda8 203c
000003f0: 34fe 24bc 2faf 373c ad58 a9bc 832a 38bd

cell.bias f4 [48]
0.0029741856 0.0028809148 0.0029932593 0.0029782648 -0.0026688385 -0.002824149 0.002800773 0.0028139814
-0.0029275664 0.002999774 -0.0029511452 0.0018481442 -0.0029513813 0.0029704145 0.002896919 0.0016594284
0.00015116064 -0.0026346839 0.0027953233 0.002165068 0.002979341 -0.00031617578 0.002858982 0.002568903
0.001873047 0.0029784138 -0.002704626 -0.0029664522 -0.0028624558 -0.0029304316 -1.5603495e-05 0.0029660244
0.0027213832 -0.0027168842 -0.0027328238 -0.00012909711 -0.0028181123 -0.0029858204 0.0014613079 -0.00051446195
-0.0028359168 -0.002981157 0.0029869992 0.002963494 0.00033024838 0.0005289894 -0.002207507 -0.0029123158
00000000: 8eea 423b bbcd 3c3b 8f2a 443b fe2e 433b
00000010: aee7 2ebb 5c15 39bb 2c8d 373b c66a 383b
00000020: 6adc 3fbb db97 443b 0068 41bb 6e3d f23a
00000030: f66b 41bb 49ab 423b 3cda 3d3b 2d81 d93a
00000040: e080 1e39 a9aa 2cbb be31 373b d0e3 0d3b
00000050: 0c41 433b 65c4 a5b9 c25d 3b3b 0a5b 283b
00000060: 0781 f53a 7e31 433b 1840 31bb cf68 42bb
00000070: 0a98 3bbb 7c0c 40bb 40e4 82b7 a261 423b
00000080: 3c59 323b c10d 32bb 2d19 33bb 3e5e 07b9
00000090: 14b0 38bb c1ad 43bb 5b89 bf3a f5dc 06ba
000000a0: cada 39bb 845f 43bb 88c1 433b 2e37 423b
000000b0: 3025 ad39 e1ab 0a3a d2ab 10bb 8ddc 3ebb
